I0823 13:59:44.811483 20733 caffe.cpp:217] Using GPUs 1
I0823 13:59:44.851030 20733 caffe.cpp:222] GPU 1: GeForce GTX 1080 Ti
I0823 13:59:45.262914 20733 solver.cpp:48] Initializing solver from parameters: 
test_iter: 250
test_interval: 1000
base_lr: 0.0001
display: 100
max_iter: 50000
lr_policy: "step"
gamma: 0.1
momentum: 0.9
weight_decay: 5e-05
stepsize: 20000
snapshot: 5000
snapshot_prefix: "model/mn"
solver_mode: GPU
device_id: 1
net: "MN_train.prototxt"
train_state {
  level: 0
  stage: ""
}
I0823 13:59:45.263011 20733 solver.cpp:91] Creating training net from net file: MN_train.prototxt
name: "MobileNet"
state {
  phase: TRAIN
  level: 0
  stage: ""
}
layer {
  name: "data"
  type: "Data"
  top: "data"
  top: "label"
  include {
    phase: TRAIN
  }
  transform_param {
    mirror: true
    crop_size: 224
  }
  data_param {
    source: "/home/research/disk1/zwx/AvatarData/face6.2/train_noeye_lmdb_256"
    batch_size: 50
    backend: LMDB
  }
}
layer {
  name: "conv1"
  type: "Convolution"
  bottom: "data"
  top: "conv1"
  param {
    lr_mult: 1
    decay_mult: 1
  }
  convolution_param {
    num_output: 32
    bias_term: false
    pad: 1
    kernel_size: 3
    stride: 2
    weight_filler {
      type: "msra"
    }
  }
}
layer {
  name: "conv1/bn"
  type: "BatchNorm"
  bottom: "conv1"
  top: "conv1"
  param {
    lr_mult: 0
    decay_mult: 0
  }
  param {
    lr_mult: 0
    decay_mult: 0
  }
  param {
    lr_mult: 0
    decay_mult: 0
  }
}
layer {
  name: "conv1/scale"
  type: "Scale"
  bottom: "conv1"
  top: "conv1"
  scale_param {
    filler {
      value: 1
    }
    bias_term: true
    bias_filler {
      value: 0
    }
  }
}
layer {
  name: "relu1"
  type: "ReLU"
  bottom: "conv1"
  top: "conv1"
}
layer {
  name: "conv2_1/dw"
  type: "Convolution"
  bottom: "conv1"
  top: "conv2_1/dw"
  param {
    lr_mult: 1
    decay_mult: 1
  }
  convolution_param {
    num_output: 32
    bias_term: false
    pad: 1
    kernel_size: 3
    group: 32
    stride: 1
    weight_filler {
      type: "msra"
    }
  }
}
layer {
  name: "conv2_1/dw/bn"
  type: "BatchNorm"
  bottom: "conv2_1/dw"
  top: "conv2_1/dw"
  param {
    lr_mult: 0
    decay_mult: 0
  }
  param {
    lr_mult: 0
    decay_mult: 0
  }
  param {
    lr_mult: 0
    decay_mult: 0
  }
}
layer {
  name: "conv2_1/dw/scale"
  type: "Scale"
  bottom: "conv2_1/dw"
  top: "conv2_1/dw"
  scale_param {
    filler {
      value: 1
    }
    bias_term: true
    bias_filler {
      value: 0
    }
  }
}
layer {
  name: "relu2_1/dw"
  type: "ReLU"
  bottom: "conv2_1/dw"
  top: "conv2_1/dw"
}
layer {
  name: "conv2_1/sep"
  type: "Convolution"
  bottom: "conv2_1/dw"
  top: "conv2_1/sep"
  param {
    lr_mult: 1
    decay_mult: 1
  }
  convolution_param {
    num_output: 64
    bias_term: false
    pad: 0
    kernel_size: 1
    stride: 1
    weight_filler {
      type: "msra"
    }
  }
}
layer {
  name: "conv2_1/sep/bn"
  type: "BatchNorm"
  bottom: "conv2_1/sep"
  top: "conv2_1/sep"
  param {
    lr_mult: 0
    decay_mult: 0
  }
  param {
    lr_mult: 0
    decay_mult: 0
  }
  param {
    lr_mult: 0
    decay_mult: 0
  }
}
layer {
  name: "conv2_1/sep/scale"
  type: "Scale"
  bottom: "conv2_1/sep"
  top: "conv2_1/sep"
  scale_param {
    filler {
      value: 1
    }
    bias_term: true
    bias_filler {
      value: 0
    }
  }
}
layer {
  name: "relu2_1/sep"
  type: "ReLU"
  bottom: "conv2_1/sep"
  top: "conv2_1/sep"
}
layer {
  name: "conv2_2/dw"
  type: "Convolution"
  bottom: "conv2_1/sep"
  top: "conv2_2/dw"
  param {
    lr_mult: 1
    decay_mult: 1
  }
  convolution_param {
    num_output: 64
    bias_term: false
    pad: 1
    kernel_size: 3
    group: 64
    stride: 2
    weight_filler {
      type: "msra"
    }
  }
}
layer {
  name: "conv2_2/dw/bn"
  type: "BatchNorm"
  bottom: "conv2_2/dw"
  top: "conv2_2/dw"
  param {
    lr_mult: 0
    decay_mult: 0
  }
  param {
    lr_mult: 0
    decay_mult: 0
  }
  param {
    lr_mult: 0
    decay_mult: 0
  }
}
layer {
  name: "conv2_2/dw/scale"
  type: "Scale"
  bottom: "conv2_2/dw"
  top: "conv2_2/dw"
  scale_param {
    filler {
      value: 1
    }
    bias_term: true
    bias_filler {
      value: 0
    }
  }
}
layer {
  name: "relu2_2/dw"
  type: "ReLU"
  bottom: "conv2_2/dw"
  top: "conv2_2/dw"
}
layer {
  name: "conv2_2/sep"
  type: "Convolution"
  bottom: "conv2_2/dw"
  top: "conv2_2/sep"
  param {
    lr_mult: 1
    decay_mult: 1
  }
  convolution_param {
    num_output: 128
    bias_term: false
    pad: 0
    kernel_size: 1
    stride: 1
    weight_filler {
      type: "msra"
    }
  }
}
layer {
  name: "conv2_2/sep/bn"
  type: "BatchNorm"
  bottom: "conv2_2/sep"
  top: "conv2_2/sep"
  param {
    lr_mult: 0
    decay_mult: 0
  }
  param {
    lr_mult: 0
    decay_mult: 0
  }
  param {
    lr_mult: 0
    decay_mult: 0
  }
}
layer {
  name: "conv2_2/sep/scale"
  type: "Scale"
  bottom: "conv2_2/sep"
  top: "conv2_2/sep"
  scale_param {
    filler {
      value: 1
    }
    bias_term: true
    bias_filler {
      value: 0
    }
  }
}
layer {
  name: "relu2_2/sep"
  type: "ReLU"
  bottom: "conv2_2/sep"
  top: "conv2_2/sep"
}
layer {
  name: "conv3_1/dw"
  type: "Convolution"
  bottom: "conv2_2/sep"
  top: "conv3_1/dw"
  param {
    lr_mult: 1
    decay_mult: 1
  }
  convolution_param {
    num_output: 128
    bias_term: false
    pad: 1
    kernel_size: 3
    group: 128
    stride: 1
    weight_filler {
      type: "msra"
    }
  }
}
layer {
  name: "conv3_1/dw/bn"
  type: "BatchNorm"
  bottom: "conv3_1/dw"
  top: "conv3_1/dw"
  param {
    lr_mult: 0
    decay_mult: 0
  }
  param {
    lr_mult: 0
    decay_mult: 0
  }
  param {
    lr_mult: 0
    decay_mult: 0
  }
}
layer {
  name: "conv3_1/dw/scale"
  type: "Scale"
  bottom: "conv3_1/dw"
  top: "conv3_1/dw"
  scale_param {
    filler {
      value: 1
    }
    bias_term: true
    bias_filler {
      value: 0
    }
  }
}
layer {
  name: "relu3_1/dw"
  type: "ReLU"
  bottom: "conv3_1/dw"
  top: "conv3_1/dw"
}
layer {
  name: "conv3_1/sep"
  type: "Convolution"
  bottom: "conv3_1/dw"
  top: "conv3_1/sep"
  param {
    lr_mult: 1
    decay_mult: 1
  }
  convolution_param {
    num_output: 128
    bias_term: false
    pad: 0
    kernel_size: 1
    stride: 1
    weight_filler {
      type: "msra"
    }
  }
}
layer {
  name: "conv3_1/sep/bn"
  type: "BatchNorm"
  bottom: "conv3_1/sep"
  top: "conv3_1/sep"
  param {
    lr_mult: 0
    decay_mult: 0
  }
  param {
    lr_mult: 0
    decay_mult: 0
  }
  param {
    lr_mult: 0
    decay_mult: 0
  }
}
layer {
  name: "conv3_1/sep/scale"
  type: "Scale"
  bottom: "conv3_1/sep"
  top: "conv3_1/sep"
  scale_param {
    filler {
      value: 1
    }
    bias_term: true
    bias_filler {
      value: 0
    }
  }
}
layer {
  name: "relu3_1/sep"
  type: "ReLU"
  bottom: "conv3_1/sep"
  top: "conv3_1/sep"
}
layer {
  name: "conv3_2/dw"
  type: "Convolution"
  bottom: "conv3_1/sep"
  top: "conv3_2/dw"
  param {
    lr_mult: 1
    decay_mult: 1
  }
  convolution_param {
    num_output: 128
    bias_term: false
    pad: 1
    kernel_size: 3
    group: 128
    stride: 2
    weight_filler {
      type: "msra"
    }
  }
}
layer {
  name: "conv3_2/dw/bn"
  type: "BatchNorm"
  bottom: "conv3_2/dw"
  top: "conv3_2/dw"
  param {
    lr_mult: 0
    decay_mult: 0
  }
  param {
    lr_mult: 0
    decay_mult: 0
  }
  param {
    lr_mult: 0
    decay_mult: 0
  }
}
layer {
  name: "conv3_2/dw/scale"
  type: "Scale"
  bottom: "conv3_2/dw"
  top: "conv3_2/dw"
  scale_param {
    filler {
      value: 1
    }
    bias_term: true
    bias_filler {
      value: 0
    }
  }
}
layer {
  name: "relu3_2/dw"
  type: "ReLU"
  bottom: "conv3_2/dw"
  top: "conv3_2/dw"
}
layer {
  name: "conv3_2/sep"
  type: "Convolution"
  bottom: "conv3_2/dw"
  top: "conv3_2/sep"
  param {
    lr_mult: 1
    decay_mult: 1
  }
  convolution_param {
    num_output: 256
    bias_term: false
    pad: 0
    kernel_size: 1
    stride: 1
    weight_filler {
      type: "msra"
    }
  }
}
layer {
  name: "conv3_2/sep/bn"
  type: "BatchNorm"
  bottom: "conv3_2/sep"
  top: "conv3_2/sep"
  param {
    lr_mult: 0
    decay_mult: 0
  }
  param {
    lr_mult: 0
    decay_mult: 0
  }
  param {
    lr_mult: 0
    decay_mult: 0
  }
}
layer {
  name: "conv3_2/sep/scale"
  type: "Scale"
  bottom: "conv3_2/sep"
  top: "conv3_2/sep"
  scale_param {
    filler {
      value: 1
    }
    bias_term: true
    bias_filler {
      value: 0
    }
  }
}
layer {
  name: "relu3_2/sep"
  type: "ReLU"
  bottom: "conv3_2/sep"
  top: "conv3_2/sep"
}
layer {
  name: "conv4_1/dw"
  type: "Convolution"
  bottom: "conv3_2/sep"
  top: "conv4_1/dw"
  param {
    lr_mult: 1
    decay_mult: 1
  }
  convolution_param {
    num_output: 256
    bias_term: false
    pad: 1
    kernel_size: 3
    group: 256
    stride: 1
    weight_filler {
      type: "msra"
    }
  }
}
layer {
  name: "conv4_1/dw/bn"
  type: "BatchNorm"
  bottom: "conv4_1/dw"
  top: "conv4_1/dw"
  param {
    lr_mult: 0
    decay_mult: 0
  }
  param {
    lr_mult: 0
    decay_mult: 0
  }
  param {
    lr_mult: 0
    decay_mult: 0
  }
}
layer {
  name: "conv4_1/dw/scale"
  type: "Scale"
  bottom: "conv4_1/dw"
  top: "conv4_1/dw"
  scale_param {
    filler {
      value: 1
    }
    bias_term: true
    bias_filler {
      value: 0
    }
  }
}
layer {
  name: "relu4_1/dw"
  type: "ReLU"
  bottom: "conv4_1/dw"
  top: "conv4_1/dw"
}
layer {
  name: "conv4_1/sep"
  type: "Convolution"
  bottom: "conv4_1/dw"
  top: "conv4_1/sep"
  param {
    lr_mult: 1
    decay_mult: 1
  }
  convolution_param {
    num_output: 256
    bias_term: false
    pad: 0
    kernel_size: 1
    stride: 1
    weight_filler {
      type: "msra"
    }
  }
}
layer {
  name: "conv4_1/sep/bn"
  type: "BatchNorm"
  bottom: "conv4_1/sep"
  top: "conv4_1/sep"
  param {
    lr_mult: 0
    decay_mult: 0
  }
  param {
    lr_mult: 0
    decay_mult: 0
  }
  param {
    lr_mult: 0
    decay_mult: 0
  }
}
layer {
  name: "conv4_1/sep/scale"
  type: "Scale"
  bottom: "conv4_1/sep"
  top: "conv4_1/sep"
  scale_param {
    filler {
      value: 1
    }
    bias_term: true
    bias_filler {
      value: 0
    }
  }
}
layer {
  name: "relu4_1/sep"
  type: "ReLU"
  bottom: "conv4_1/sep"
  top: "conv4_1/sep"
}
layer {
  name: "conv4_2/dw"
  type: "Convolution"
  bottom: "conv4_1/sep"
  top: "conv4_2/dw"
  param {
    lr_mult: 1
    decay_mult: 1
  }
  convolution_param {
    num_output: 256
    bias_term: false
    pad: 1
    kernel_size: 3
    group: 256
    stride: 2
    weight_filler {
      type: "msra"
    }
  }
}
layer {
  name: "conv4_2/dw/bn"
  type: "BatchNorm"
  bottom: "conv4_2/dw"
  top: "conv4_2/dw"
  param {
    lr_mult: 0
    decay_mult: 0
  }
  param {
    lr_mult: 0
    decay_mult: 0
  }
  param {
    lr_mult: 0
    decay_mult: 0
  }
}
layer {
  name: "conv4_2/dw/scale"
  type: "Scale"
  bottom: "conv4_2/dw"
  top: "conv4_2/dw"
  scale_param {
    filler {
      value: 1
    }
    bias_term: true
    bias_filler {
      value: 0
    }
  }
}
layer {
  name: "relu4_2/dw"
  type: "ReLU"
  bottom: "conv4_2/dw"
  top: "conv4_2/dw"
}
layer {
  name: "conv4_2/sep"
  type: "Convolution"
  bottom: "conv4_2/dw"
  top: "conv4_2/sep"
  param {
    lr_mult: 1
    decay_mult: 1
  }
  convolution_param {
    num_output: 512
    bias_term: false
    pad: 0
    kernel_size: 1
    stride: 1
    weight_filler {
      type: "msra"
    }
  }
}
layer {
  name: "conv4_2/sep/bn"
  type: "BatchNorm"
  bottom: "conv4_2/sep"
  top: "conv4_2/sep"
  param {
    lr_mult: 0
    decay_mult: 0
  }
  param {
    lr_mult: 0
    decay_mult: 0
  }
  param {
    lr_mult: 0
    decay_mult: 0
  }
}
layer {
  name: "conv4_2/sep/scale"
  type: "Scale"
  bottom: "conv4_2/sep"
  top: "conv4_2/sep"
  scale_param {
    filler {
      value: 1
    }
    bias_term: true
    bias_filler {
      value: 0
    }
  }
}
layer {
  name: "relu4_2/sep"
  type: "ReLU"
  bottom: "conv4_2/sep"
  top: "conv4_2/sep"
}
layer {
  name: "conv5_1/dw"
  type: "Convolution"
  bottom: "conv4_2/sep"
  top: "conv5_1/dw"
  param {
    lr_mult: 1
    decay_mult: 1
  }
  convolution_param {
    num_output: 512
    bias_term: false
    pad: 1
    kernel_size: 3
    group: 512
    stride: 1
    weight_filler {
      type: "msra"
    }
  }
}
layer {
  name: "conv5_1/dw/bn"
  type: "BatchNorm"
  bottom: "conv5_1/dw"
  top: "conv5_1/dw"
  param {
    lr_mult: 0
    decay_mult: 0
  }
  param {
    lr_mult: 0
    decay_mult: 0
  }
  param {
    lr_mult: 0
    decay_mult: 0
  }
}
layer {
  name: "conv5_1/dw/scale"
  type: "Scale"
  bottom: "conv5_1/dw"
  top: "conv5_1/dw"
  scale_param {
    filler {
      value: 1
    }
    bias_term: true
    bias_filler {
      value: 0
    }
  }
}
layer {
  name: "relu5_1/dw"
  type: "ReLU"
  bottom: "conv5_1/dw"
  top: "conv5_1/dw"
}
layer {
  name: "conv5_1/sep"
  type: "Convolution"
  bottom: "conv5_1/dw"
  top: "conv5_1/sep"
  param {
    lr_mult: 1
    decay_mult: 1
  }
  convolution_param {
    num_output: 512
    bias_term: false
    pad: 0
    kernel_size: 1
    stride: 1
    weight_filler {
      type: "msra"
    }
  }
}
layer {
  name: "conv5_1/sep/bn"
  type: "BatchNorm"
  bottom: "conv5_1/sep"
  top: "conv5_1/sep"
  param {
    lr_mult: 0
    decay_mult: 0
  }
  param {
    lr_mult: 0
    decay_mult: 0
  }
  param {
    lr_mult: 0
    decay_mult: 0
  }
}
layer {
  name: "conv5_1/sep/scale"
  type: "Scale"
  bottom: "conv5_1/sep"
  top: "conv5_1/sep"
  scale_param {
    filler {
      value: 1
    }
    bias_term: true
    bias_filler {
      value: 0
    }
  }
}
layer {
  name: "relu5_1/sep"
  type: "ReLU"
  bottom: "conv5_1/sep"
  top: "conv5_1/sep"
}
layer {
  name: "conv5_2/dw"
  type: "Convolution"
  bottom: "conv5_1/sep"
  top: "conv5_2/dw"
  param {
    lr_mult: 1
    decay_mult: 1
  }
  convolution_param {
    num_output: 512
    bias_term: false
    pad: 1
    kernel_size: 3
    group: 512
    stride: 1
    weight_filler {
      type: "msra"
    }
  }
}
layer {
  name: "conv5_2/dw/bn"
  type: "BatchNorm"
  bottom: "conv5_2/dw"
  top: "conv5_2/dw"
  param {
    lr_mult: 0
    decay_mult: 0
  }
  param {
    lr_mult: 0
    decay_mult: 0
  }
  param {
    lr_mult: 0
    decay_mult: 0
  }
}
layer {
  name: "conv5_2/dw/scale"
  type: "Scale"
  bottom: "conv5_2/dw"
  top: "conv5_2/dw"
  scale_param {
    filler {
      value: 1
    }
    bias_term: true
    bias_filler {
      value: 0
    }
  }
}
layer {
  name: "relu5_2/dw"
  type: "ReLU"
  bottom: "conv5_2/dw"
  top: "conv5_2/dw"
}
layer {
  name: "conv5_2/sep"
  type: "Convolution"
  bottom: "conv5_2/dw"
  top: "conv5_2/sep"
  param {
    lr_mult: 1
    decay_mult: 1
  }
  convolution_param {
    num_output: 512
    bias_term: false
    pad: 0
    kernel_size: 1
    stride: 1
    weight_filler {
      type: "msra"
    }
  }
}
layer {
  name: "conv5_2/sep/bn"
  type: "BatchNorm"
  bottom: "conv5_2/sep"
  top: "conv5_2/sep"
  param {
    lr_mult: 0
    decay_mult: 0
  }
  param {
    lr_mult: 0
    decay_mult: 0
  }
  param {
    lr_mult: 0
    decay_mult: 0
  }
}
layer {
  name: "conv5_2/sep/scale"
  type: "Scale"
  bottom: "conv5_2/sep"
  top: "conv5_2/sep"
  scale_param {
    filler {
      value: 1
    }
    bias_term: true
    bias_filler {
      value: 0
    }
  }
}
layer {
  name: "relu5_2/sep"
  type: "ReLU"
  bottom: "conv5_2/sep"
  top: "conv5_2/sep"
}
layer {
  name: "conv5_3/dw"
  type: "Convolution"
  bottom: "conv5_2/sep"
  top: "conv5_3/dw"
  param {
    lr_mult: 1
    decay_mult: 1
  }
  convolution_param {
    num_output: 512
    bias_term: false
    pad: 1
    kernel_size: 3
    group: 512
    stride: 1
    weight_filler {
      type: "msra"
    }
  }
}
layer {
  name: "conv5_3/dw/bn"
  type: "BatchNorm"
  bottom: "conv5_3/dw"
  top: "conv5_3/dw"
  param {
    lr_mult: 0
    decay_mult: 0
  }
  param {
    lr_mult: 0
    decay_mult: 0
  }
  param {
    lr_mult: 0
    decay_mult: 0
  }
}
layer {
  name: "conv5_3/dw/scale"
  type: "Scale"
  bottom: "conv5_3/dw"
  top: "conv5_3/dw"
  scale_param {
    filler {
      value: 1
    }
    bias_term: true
    bias_filler {
      value: 0
    }
  }
}
layer {
  name: "relu5_3/dw"
  type: "ReLU"
  bottom: "conv5_3/dw"
  top: "conv5_3/dw"
}
layer {
  name: "conv5_3/sep"
  type: "Convolution"
  bottom: "conv5_3/dw"
  top: "conv5_3/sep"
  param {
    lr_mult: 1
    decay_mult: 1
  }
  convolution_param {
    num_output: 512
    bias_term: false
    pad: 0
    kernel_size: 1
    stride: 1
    weight_filler {
      type: "msra"
    }
  }
}
layer {
  name: "conv5_3/sep/bn"
  type: "BatchNorm"
  bottom: "conv5_3/sep"
  top: "conv5_3/sep"
  param {
    lr_mult: 0
    decay_mult: 0
  }
  param {
    lr_mult: 0
    decay_mult: 0
  }
  param {
    lr_mult: 0
    decay_mult: 0
  }
}
layer {
  name: "conv5_3/sep/scale"
  type: "Scale"
  bottom: "conv5_3/sep"
  top: "conv5_3/sep"
  scale_param {
    filler {
      value: 1
    }
    bias_term: true
    bias_filler {
      value: 0
    }
  }
}
layer {
  name: "relu5_3/sep"
  type: "ReLU"
  bottom: "conv5_3/sep"
  top: "conv5_3/sep"
}
layer {
  name: "conv5_4/dw"
  type: "Convolution"
  bottom: "conv5_3/sep"
  top: "conv5_4/dw"
  param {
    lr_mult: 1
    decay_mult: 1
  }
  convolution_param {
    num_output: 512
    bias_term: false
    pad: 1
    kernel_size: 3
    group: 512
    stride: 1
    weight_filler {
      type: "msra"
    }
  }
}
layer {
  name: "conv5_4/dw/bn"
  type: "BatchNorm"
  bottom: "conv5_4/dw"
  top: "conv5_4/dw"
  param {
    lr_mult: 0
    decay_mult: 0
  }
  param {
    lr_mult: 0
    decay_mult: 0
  }
  param {
    lr_mult: 0
    decay_mult: 0
  }
}
layer {
  name: "conv5_4/dw/scale"
  type: "Scale"
  bottom: "conv5_4/dw"
  top: "conv5_4/dw"
  scale_param {
    filler {
      value: 1
    }
    bias_term: true
    bias_filler {
      value: 0
    }
  }
}
layer {
  name: "relu5_4/dw"
  type: "ReLU"
  bottom: "conv5_4/dw"
  top: "conv5_4/dw"
}
layer {
  name: "conv5_4/sep"
  type: "Convolution"
  bottom: "conv5_4/dw"
  top: "conv5_4/sep"
  param {
    lr_mult: 1
    decay_mult: 1
  }
  convolution_param {
    num_output: 512
    bias_term: false
    pad: 0
    kernel_size: 1
    stride: 1
    weight_filler {
      type: "msra"
    }
  }
}
layer {
  name: "conv5_4/sep/bn"
  type: "BatchNorm"
  bottom: "conv5_4/sep"
  top: "conv5_4/sep"
  param {
    lr_mult: 0
    decay_mult: 0
  }
  param {
    lr_mult: 0
    decay_mult: 0
  }
  param {
    lr_mult: 0
    decay_mult: 0
  }
}
layer {
  name: "conv5_4/sep/scale"
  type: "Scale"
  bottom: "conv5_4/sep"
  top: "conv5_4/sep"
  scale_param {
    filler {
      value: 1
    }
    bias_term: true
    bias_filler {
      value: 0
    }
  }
}
layer {
  name: "relu5_4/sep"
  type: "ReLU"
  bottom: "conv5_4/sep"
  top: "conv5_4/sep"
}
layer {
  name: "conv5_5/dw"
  type: "Convolution"
  bottom: "conv5_4/sep"
  top: "conv5_5/dw"
  param {
    lr_mult: 1
    decay_mult: 1
  }
  convolution_param {
    num_output: 512
    bias_term: false
    pad: 1
    kernel_size: 3
    group: 512
    stride: 1
    weight_filler {
      type: "msra"
    }
  }
}
layer {
  name: "conv5_5/dw/bn"
  type: "BatchNorm"
  bottom: "conv5_5/dw"
  top: "conv5_5/dw"
  param {
    lr_mult: 0
    decay_mult: 0
  }
  param {
    lr_mult: 0
    decay_mult: 0
  }
  param {
    lr_mult: 0
    decay_mult: 0
  }
}
layer {
  name: "conv5_5/dw/scale"
  type: "Scale"
  bottom: "conv5_5/dw"
  top: "conv5_5/dw"
  scale_param {
    filler {
      value: 1
    }
    bias_term: true
    bias_filler {
      value: 0
    }
  }
}
layer {
  name: "relu5_5/dw"
  type: "ReLU"
  bottom: "conv5_5/dw"
  top: "conv5_5/dw"
}
layer {
  name: "conv5_5/sep"
  type: "Convolution"
  bottom: "conv5_5/dw"
  top: "conv5_5/sep"
  param {
    lr_mult: 1
    decay_mult: 1
  }
  convolution_param {
    num_output: 512
    bias_term: false
    pad: 0
    kernel_size: 1
    stride: 1
    weight_filler {
      type: "msra"
    }
  }
}
layer {
  name: "conv5_5/sep/bn"
  type: "BatchNorm"
  bottom: "conv5_5/sep"
  top: "conv5_5/sep"
  param {
    lr_mult: 0
    decay_mult: 0
  }
  param {
    lr_mult: 0
    decay_mult: 0
  }
  param {
    lr_mult: 0
    decay_mult: 0
  }
}
layer {
  name: "conv5_5/sep/scale"
  type: "Scale"
  bottom: "conv5_5/sep"
  top: "conv5_5/sep"
  scale_param {
    filler {
      value: 1
    }
    bias_term: true
    bias_filler {
      value: 0
    }
  }
}
layer {
  name: "relu5_5/sep"
  type: "ReLU"
  bottom: "conv5_5/sep"
  top: "conv5_5/sep"
}
layer {
  name: "conv5_6/dw"
  type: "Convolution"
  bottom: "conv5_5/sep"
  top: "conv5_6/dw"
  param {
    lr_mult: 1
    decay_mult: 1
  }
  convolution_param {
    num_output: 512
    bias_term: false
    pad: 1
    kernel_size: 3
    group: 512
    stride: 2
    weight_filler {
      type: "msra"
    }
  }
}
layer {
  name: "conv5_6/dw/bn"
  type: "BatchNorm"
  bottom: "conv5_6/dw"
  top: "conv5_6/dw"
  param {
    lr_mult: 0
    decay_mult: 0
  }
  param {
    lr_mult: 0
    decay_mult: 0
  }
  param {
    lr_mult: 0
    decay_mult: 0
  }
}
layer {
  name: "conv5_6/dw/scale"
  type: "Scale"
  bottom: "conv5_6/dw"
  top: "conv5_6/dw"
  scale_param {
    filler {
      value: 1
    }
    bias_term: true
    bias_filler {
      value: 0
    }
  }
}
layer {
  name: "relu5_6/dw"
  type: "ReLU"
  bottom: "conv5_6/dw"
  top: "conv5_6/dw"
}
layer {
  name: "conv5_6/sep"
  type: "Convolution"
  bottom: "conv5_6/dw"
  top: "conv5_6/sep"
  param {
    lr_mult: 1
    decay_mult: 1
  }
  convolution_param {
    num_output: 1024
    bias_term: false
    pad: 0
    kernel_size: 1
    stride: 1
    weight_filler {
      type: "msra"
    }
  }
}
layer {
  name: "conv5_6/sep/bn"
  type: "BatchNorm"
  bottom: "conv5_6/sep"
  top: "conv5_6/sep"
  param {
    lr_mult: 0
    decay_mult: 0
  }
  param {
    lr_mult: 0
    decay_mult: 0
  }
  param {
    lr_mult: 0
    decay_mult: 0
  }
}
layer {
  name: "conv5_6/sep/scale"
  type: "Scale"
  bottom: "conv5_6/sep"
  top: "conv5_6/sep"
  scale_param {
    filler {
      value: 1
    }
    bias_term: true
    bias_filler {
      value: 0
    }
  }
}
layer {
  name: "relu5_6/sep"
  type: "ReLU"
  bottom: "conv5_6/sep"
  top: "conv5_6/sep"
}
layer {
  name: "conv6/dw"
  type: "Convolution"
  bottom: "conv5_6/sep"
  top: "conv6/dw"
  param {
    lr_mult: 1
    decay_mult: 1
  }
  convolution_param {
    num_output: 1024
    bias_term: false
    pad: 1
    kernel_size: 3
    group: 1024
    stride: 1
    weight_filler {
      type: "msra"
    }
  }
}
layer {
  name: "conv6/dw/bn"
  type: "BatchNorm"
  bottom: "conv6/dw"
  top: "conv6/dw"
  param {
    lr_mult: 0
    decay_mult: 0
  }
  param {
    lr_mult: 0
    decay_mult: 0
  }
  param {
    lr_mult: 0
    decay_mult: 0
  }
}
layer {
  name: "conv6/dw/scale"
  type: "Scale"
  bottom: "conv6/dw"
  top: "conv6/dw"
  scale_param {
    filler {
      value: 1
    }
    bias_term: true
    bias_filler {
      value: 0
    }
  }
}
layer {
  name: "relu6/dw"
  type: "ReLU"
  bottom: "conv6/dw"
  top: "conv6/dw"
}
layer {
  name: "conv6/sep"
  type: "Convolution"
  bottom: "conv6/dw"
  top: "conv6/sep"
  param {
    lr_mult: 1
    decay_mult: 1
  }
  convolution_param {
    num_output: 1024
    bias_term: false
    pad: 0
    kernel_size: 1
    stride: 1
    weight_filler {
      type: "msra"
    }
  }
}
layer {
  name: "conv6/sep/bn"
  type: "BatchNorm"
  bottom: "conv6/sep"
  top: "conv6/sep"
  param {
    lr_mult: 0
    decay_mult: 0
  }
  param {
    lr_mult: 0
    decay_mult: 0
  }
  param {
    lr_mult: 0
    decay_mult: 0
  }
}
layer {
  name: "conv6/sep/scale"
  type: "Scale"
  bottom: "conv6/sep"
  top: "conv6/sep"
  scale_param {
    filler {
      value: 1
    }
    bias_term: true
    bias_filler {
      value: 0
    }
  }
}
layer {
  name: "relu6/sep"
  type: "ReLU"
  bottom: "conv6/sep"
  top: "conv6/sep"
}
layer {
  name: "pool6"
  type: "Pooling"
  bottom: "conv6/sep"
  top: "pool6"
  pooling_param {
    pool: AVE
    global_pooling: true
  }
}
layer {
  name: "fc1"
  type: "Convolution"
  bottom: "pool6"
  top: "fc1"
  param {
    lr_mult: 10
    decay_mult: 1
  }
  param {
    lr_mult: 20
    decay_mult: 0
  }
  convolution_param {
    num_output: 7
    kernel_size: 1
    weight_filler {
      type: "msra"
    }
    bias_filler {
      type: "constant"
      value: 0
    }
  }
}
layer {
  name: "softmax"
  type: "Softmax"
  bottom: "fc1"
  top: "prob"
}
layer {
  name: "accuracy"
  type: "Accuracy"
  bottom: "prob"
  bottom: "label"
  top: "accuracy"
}
layer {
  name: "loss"
  type: "SoftmaxWithLoss"
  bottom: "fc1"
  bottom: "label"
  loss_weight: 1
}
I0823 13:59:45.264472 20733 layer_factory.hpp:77] Creating layer data
I0823 13:59:45.265955 20738 db_lmdb.cpp:35] Opened lmdb /home/research/disk1/zwx/AvatarData/face6.2/train_noeye_lmdb_256
I0823 13:59:45.278323 20733 data_layer.cpp:41] output data size: 50,3,224,224
I0823 13:59:45.312584 20733 layer_factory.hpp:77] Creating layer label_data_1_split
I0823 13:59:45.312692 20733 layer_factory.hpp:77] Creating layer conv1
I0823 13:59:45.313678 20733 layer_factory.hpp:77] Creating layer conv1/bn
I0823 13:59:45.316877 20733 layer_factory.hpp:77] Creating layer conv1/scale
I0823 13:59:45.316931 20733 layer_factory.hpp:77] Creating layer conv1/scale
I0823 13:59:45.317059 20733 layer_factory.hpp:77] Creating layer relu1
I0823 13:59:45.317092 20733 layer_factory.hpp:77] Creating layer conv2_1/dw
I0823 13:59:45.317268 20733 layer_factory.hpp:77] Creating layer conv2_1/dw/bn
I0823 13:59:45.317463 20733 layer_factory.hpp:77] Creating layer conv2_1/dw/scale
I0823 13:59:45.317507 20733 layer_factory.hpp:77] Creating layer conv2_1/dw/scale
I0823 13:59:45.317626 20733 layer_factory.hpp:77] Creating layer relu2_1/dw
I0823 13:59:45.317659 20733 layer_factory.hpp:77] Creating layer conv2_1/sep
I0823 13:59:45.318562 20733 layer_factory.hpp:77] Creating layer conv2_1/sep/bn
I0823 13:59:45.318742 20733 layer_factory.hpp:77] Creating layer conv2_1/sep/scale
I0823 13:59:45.318784 20733 layer_factory.hpp:77] Creating layer conv2_1/sep/scale
I0823 13:59:45.318907 20733 layer_factory.hpp:77] Creating layer relu2_1/sep
I0823 13:59:45.318936 20733 layer_factory.hpp:77] Creating layer conv2_2/dw
I0823 13:59:45.319124 20733 layer_factory.hpp:77] Creating layer conv2_2/dw/bn
I0823 13:59:45.319290 20733 layer_factory.hpp:77] Creating layer conv2_2/dw/scale
I0823 13:59:45.319334 20733 layer_factory.hpp:77] Creating layer conv2_2/dw/scale
I0823 13:59:45.319440 20733 layer_factory.hpp:77] Creating layer relu2_2/dw
I0823 13:59:45.319478 20733 layer_factory.hpp:77] Creating layer conv2_2/sep
I0823 13:59:45.319711 20733 layer_factory.hpp:77] Creating layer conv2_2/sep/bn
I0823 13:59:45.319871 20733 layer_factory.hpp:77] Creating layer conv2_2/sep/scale
I0823 13:59:45.319912 20733 layer_factory.hpp:77] Creating layer conv2_2/sep/scale
I0823 13:59:45.320015 20733 layer_factory.hpp:77] Creating layer relu2_2/sep
I0823 13:59:45.320045 20733 layer_factory.hpp:77] Creating layer conv3_1/dw
I0823 13:59:45.320232 20733 layer_factory.hpp:77] Creating layer conv3_1/dw/bn
I0823 13:59:45.320399 20733 layer_factory.hpp:77] Creating layer conv3_1/dw/scale
I0823 13:59:45.320442 20733 layer_factory.hpp:77] Creating layer conv3_1/dw/scale
I0823 13:59:45.320569 20733 layer_factory.hpp:77] Creating layer relu3_1/dw
I0823 13:59:45.320600 20733 layer_factory.hpp:77] Creating layer conv3_1/sep
I0823 13:59:45.320896 20733 layer_factory.hpp:77] Creating layer conv3_1/sep/bn
I0823 13:59:45.321063 20733 layer_factory.hpp:77] Creating layer conv3_1/sep/scale
I0823 13:59:45.321104 20733 layer_factory.hpp:77] Creating layer conv3_1/sep/scale
I0823 13:59:45.321208 20733 layer_factory.hpp:77] Creating layer relu3_1/sep
I0823 13:59:45.321238 20733 layer_factory.hpp:77] Creating layer conv3_2/dw
I0823 13:59:45.321424 20733 layer_factory.hpp:77] Creating layer conv3_2/dw/bn
I0823 13:59:45.321591 20733 layer_factory.hpp:77] Creating layer conv3_2/dw/scale
I0823 13:59:45.321636 20733 layer_factory.hpp:77] Creating layer conv3_2/dw/scale
I0823 13:59:45.321740 20733 layer_factory.hpp:77] Creating layer relu3_2/dw
I0823 13:59:45.321768 20733 layer_factory.hpp:77] Creating layer conv3_2/sep
I0823 13:59:45.322968 20733 layer_factory.hpp:77] Creating layer conv3_2/sep/bn
I0823 13:59:45.323144 20733 layer_factory.hpp:77] Creating layer conv3_2/sep/scale
I0823 13:59:45.323186 20733 layer_factory.hpp:77] Creating layer conv3_2/sep/scale
I0823 13:59:45.323292 20733 layer_factory.hpp:77] Creating layer relu3_2/sep
I0823 13:59:45.323329 20733 layer_factory.hpp:77] Creating layer conv4_1/dw
I0823 13:59:45.323516 20733 layer_factory.hpp:77] Creating layer conv4_1/dw/bn
I0823 13:59:45.323676 20733 layer_factory.hpp:77] Creating layer conv4_1/dw/scale
I0823 13:59:45.323716 20733 layer_factory.hpp:77] Creating layer conv4_1/dw/scale
I0823 13:59:45.323818 20733 layer_factory.hpp:77] Creating layer relu4_1/dw
I0823 13:59:45.323848 20733 layer_factory.hpp:77] Creating layer conv4_1/sep
I0823 13:59:45.324554 20733 layer_factory.hpp:77] Creating layer conv4_1/sep/bn
I0823 13:59:45.324717 20733 layer_factory.hpp:77] Creating layer conv4_1/sep/scale
I0823 13:59:45.324759 20733 layer_factory.hpp:77] Creating layer conv4_1/sep/scale
I0823 13:59:45.324864 20733 layer_factory.hpp:77] Creating layer relu4_1/sep
I0823 13:59:45.324909 20733 layer_factory.hpp:77] Creating layer conv4_2/dw
I0823 13:59:45.325103 20733 layer_factory.hpp:77] Creating layer conv4_2/dw/bn
I0823 13:59:45.325278 20733 layer_factory.hpp:77] Creating layer conv4_2/dw/scale
I0823 13:59:45.325316 20733 layer_factory.hpp:77] Creating layer conv4_2/dw/scale
I0823 13:59:45.325418 20733 layer_factory.hpp:77] Creating layer relu4_2/dw
I0823 13:59:45.325446 20733 layer_factory.hpp:77] Creating layer conv4_2/sep
I0823 13:59:45.328013 20733 layer_factory.hpp:77] Creating layer conv4_2/sep/bn
I0823 13:59:45.328200 20733 layer_factory.hpp:77] Creating layer conv4_2/sep/scale
I0823 13:59:45.328243 20733 layer_factory.hpp:77] Creating layer conv4_2/sep/scale
I0823 13:59:45.328344 20733 layer_factory.hpp:77] Creating layer relu4_2/sep
I0823 13:59:45.328397 20733 layer_factory.hpp:77] Creating layer conv5_1/dw
I0823 13:59:45.328644 20733 layer_factory.hpp:77] Creating layer conv5_1/dw/bn
I0823 13:59:45.328810 20733 layer_factory.hpp:77] Creating layer conv5_1/dw/scale
I0823 13:59:45.328848 20733 layer_factory.hpp:77] Creating layer conv5_1/dw/scale
I0823 13:59:45.328960 20733 layer_factory.hpp:77] Creating layer relu5_1/dw
I0823 13:59:45.328994 20733 layer_factory.hpp:77] Creating layer conv5_1/sep
I0823 13:59:45.331255 20733 layer_factory.hpp:77] Creating layer conv5_1/sep/bn
I0823 13:59:45.331424 20733 layer_factory.hpp:77] Creating layer conv5_1/sep/scale
I0823 13:59:45.331470 20733 layer_factory.hpp:77] Creating layer conv5_1/sep/scale
I0823 13:59:45.331585 20733 layer_factory.hpp:77] Creating layer relu5_1/sep
I0823 13:59:45.331620 20733 layer_factory.hpp:77] Creating layer conv5_2/dw
I0823 13:59:45.331836 20733 layer_factory.hpp:77] Creating layer conv5_2/dw/bn
I0823 13:59:45.332007 20733 layer_factory.hpp:77] Creating layer conv5_2/dw/scale
I0823 13:59:45.332056 20733 layer_factory.hpp:77] Creating layer conv5_2/dw/scale
I0823 13:59:45.332167 20733 layer_factory.hpp:77] Creating layer relu5_2/dw
I0823 13:59:45.332206 20733 layer_factory.hpp:77] Creating layer conv5_2/sep
I0823 13:59:45.335644 20733 layer_factory.hpp:77] Creating layer conv5_2/sep/bn
I0823 13:59:45.335819 20733 layer_factory.hpp:77] Creating layer conv5_2/sep/scale
I0823 13:59:45.335860 20733 layer_factory.hpp:77] Creating layer conv5_2/sep/scale
I0823 13:59:45.335983 20733 layer_factory.hpp:77] Creating layer relu5_2/sep
I0823 13:59:45.336016 20733 layer_factory.hpp:77] Creating layer conv5_3/dw
I0823 13:59:45.336232 20733 layer_factory.hpp:77] Creating layer conv5_3/dw/bn
I0823 13:59:45.336397 20733 layer_factory.hpp:77] Creating layer conv5_3/dw/scale
I0823 13:59:45.336436 20733 layer_factory.hpp:77] Creating layer conv5_3/dw/scale
I0823 13:59:45.336580 20733 layer_factory.hpp:77] Creating layer relu5_3/dw
I0823 13:59:45.336611 20733 layer_factory.hpp:77] Creating layer conv5_3/sep
I0823 13:59:45.338865 20733 layer_factory.hpp:77] Creating layer conv5_3/sep/bn
I0823 13:59:45.339033 20733 layer_factory.hpp:77] Creating layer conv5_3/sep/scale
I0823 13:59:45.339087 20733 layer_factory.hpp:77] Creating layer conv5_3/sep/scale
I0823 13:59:45.339200 20733 layer_factory.hpp:77] Creating layer relu5_3/sep
I0823 13:59:45.339231 20733 layer_factory.hpp:77] Creating layer conv5_4/dw
I0823 13:59:45.339437 20733 layer_factory.hpp:77] Creating layer conv5_4/dw/bn
I0823 13:59:45.339606 20733 layer_factory.hpp:77] Creating layer conv5_4/dw/scale
I0823 13:59:45.339643 20733 layer_factory.hpp:77] Creating layer conv5_4/dw/scale
I0823 13:59:45.339745 20733 layer_factory.hpp:77] Creating layer relu5_4/dw
I0823 13:59:45.339772 20733 layer_factory.hpp:77] Creating layer conv5_4/sep
I0823 13:59:45.342844 20733 layer_factory.hpp:77] Creating layer conv5_4/sep/bn
I0823 13:59:45.343039 20733 layer_factory.hpp:77] Creating layer conv5_4/sep/scale
I0823 13:59:45.343086 20733 layer_factory.hpp:77] Creating layer conv5_4/sep/scale
I0823 13:59:45.343201 20733 layer_factory.hpp:77] Creating layer relu5_4/sep
I0823 13:59:45.343238 20733 layer_factory.hpp:77] Creating layer conv5_5/dw
I0823 13:59:45.343457 20733 layer_factory.hpp:77] Creating layer conv5_5/dw/bn
I0823 13:59:45.343636 20733 layer_factory.hpp:77] Creating layer conv5_5/dw/scale
I0823 13:59:45.343680 20733 layer_factory.hpp:77] Creating layer conv5_5/dw/scale
I0823 13:59:45.343791 20733 layer_factory.hpp:77] Creating layer relu5_5/dw
I0823 13:59:45.343823 20733 layer_factory.hpp:77] Creating layer conv5_5/sep
I0823 13:59:45.346101 20733 layer_factory.hpp:77] Creating layer conv5_5/sep/bn
I0823 13:59:45.346284 20733 layer_factory.hpp:77] Creating layer conv5_5/sep/scale
I0823 13:59:45.346325 20733 layer_factory.hpp:77] Creating layer conv5_5/sep/scale
I0823 13:59:45.346436 20733 layer_factory.hpp:77] Creating layer relu5_5/sep
I0823 13:59:45.346468 20733 layer_factory.hpp:77] Creating layer conv5_6/dw
I0823 13:59:45.346676 20733 layer_factory.hpp:77] Creating layer conv5_6/dw/bn
I0823 13:59:45.346844 20733 layer_factory.hpp:77] Creating layer conv5_6/dw/scale
I0823 13:59:45.346884 20733 layer_factory.hpp:77] Creating layer conv5_6/dw/scale
I0823 13:59:45.346992 20733 layer_factory.hpp:77] Creating layer relu5_6/dw
I0823 13:59:45.347021 20733 layer_factory.hpp:77] Creating layer conv5_6/sep
I0823 13:59:45.352180 20733 layer_factory.hpp:77] Creating layer conv5_6/sep/bn
I0823 13:59:45.352387 20733 layer_factory.hpp:77] Creating layer conv5_6/sep/scale
I0823 13:59:45.352434 20733 layer_factory.hpp:77] Creating layer conv5_6/sep/scale
I0823 13:59:45.352566 20733 layer_factory.hpp:77] Creating layer relu5_6/sep
I0823 13:59:45.352607 20733 layer_factory.hpp:77] Creating layer conv6/dw
I0823 13:59:45.355123 20733 layer_factory.hpp:77] Creating layer conv6/dw/bn
I0823 13:59:45.355296 20733 layer_factory.hpp:77] Creating layer conv6/dw/scale
I0823 13:59:45.355339 20733 layer_factory.hpp:77] Creating layer conv6/dw/scale
I0823 13:59:45.355450 20733 layer_factory.hpp:77] Creating layer relu6/dw
I0823 13:59:45.355482 20733 layer_factory.hpp:77] Creating layer conv6/sep
I0823 13:59:45.365211 20733 layer_factory.hpp:77] Creating layer conv6/sep/bn
I0823 13:59:45.365427 20733 layer_factory.hpp:77] Creating layer conv6/sep/scale
I0823 13:59:45.365471 20733 layer_factory.hpp:77] Creating layer conv6/sep/scale
I0823 13:59:45.365581 20733 layer_factory.hpp:77] Creating layer relu6/sep
I0823 13:59:45.365623 20733 layer_factory.hpp:77] Creating layer pool6
I0823 13:59:45.365689 20733 layer_factory.hpp:77] Creating layer fc1
I0823 13:59:45.365988 20733 layer_factory.hpp:77] Creating layer fc1_fc1_0_split
I0823 13:59:45.366052 20733 layer_factory.hpp:77] Creating layer softmax
I0823 13:59:45.366139 20733 layer_factory.hpp:77] Creating layer accuracy
I0823 13:59:45.366189 20733 layer_factory.hpp:77] Creating layer loss
I0823 13:59:45.366212 20733 layer_factory.hpp:77] Creating layer loss
I0823 13:59:45.367669 20733 solver.cpp:181] Creating test net (#0) specified by net file: MN_train.prototxt
name: "MobileNet"
state {
  phase: TEST
}
layer {
  name: "data"
  type: "Data"
  top: "data"
  top: "label"
  include {
    phase: TEST
  }
  transform_param {
    mirror: false
    crop_size: 224
  }
  data_param {
    source: "/home/research/disk1/zwx/AvatarData/valdata/val_noeyes_lmdb_256"
    batch_size: 50
    backend: LMDB
  }
}
layer {
  name: "conv1"
  type: "Convolution"
  bottom: "data"
  top: "conv1"
  param {
    lr_mult: 1
    decay_mult: 1
  }
  convolution_param {
    num_output: 32
    bias_term: false
    pad: 1
    kernel_size: 3
    stride: 2
    weight_filler {
      type: "msra"
    }
  }
}
layer {
  name: "conv1/bn"
  type: "BatchNorm"
  bottom: "conv1"
  top: "conv1"
  param {
    lr_mult: 0
    decay_mult: 0
  }
  param {
    lr_mult: 0
    decay_mult: 0
  }
  param {
    lr_mult: 0
    decay_mult: 0
  }
}
layer {
  name: "conv1/scale"
  type: "Scale"
  bottom: "conv1"
  top: "conv1"
  scale_param {
    filler {
      value: 1
    }
    bias_term: true
    bias_filler {
      value: 0
    }
  }
}
layer {
  name: "relu1"
  type: "ReLU"
  bottom: "conv1"
  top: "conv1"
}
layer {
  name: "conv2_1/dw"
  type: "Convolution"
  bottom: "conv1"
  top: "conv2_1/dw"
  param {
    lr_mult: 1
    decay_mult: 1
  }
  convolution_param {
    num_output: 32
    bias_term: false
    pad: 1
    kernel_size: 3
    group: 32
    stride: 1
    weight_filler {
      type: "msra"
    }
  }
}
layer {
  name: "conv2_1/dw/bn"
  type: "BatchNorm"
  bottom: "conv2_1/dw"
  top: "conv2_1/dw"
  param {
    lr_mult: 0
    decay_mult: 0
  }
  param {
    lr_mult: 0
    decay_mult: 0
  }
  param {
    lr_mult: 0
    decay_mult: 0
  }
}
layer {
  name: "conv2_1/dw/scale"
  type: "Scale"
  bottom: "conv2_1/dw"
  top: "conv2_1/dw"
  scale_param {
    filler {
      value: 1
    }
    bias_term: true
    bias_filler {
      value: 0
    }
  }
}
layer {
  name: "relu2_1/dw"
  type: "ReLU"
  bottom: "conv2_1/dw"
  top: "conv2_1/dw"
}
layer {
  name: "conv2_1/sep"
  type: "Convolution"
  bottom: "conv2_1/dw"
  top: "conv2_1/sep"
  param {
    lr_mult: 1
    decay_mult: 1
  }
  convolution_param {
    num_output: 64
    bias_term: false
    pad: 0
    kernel_size: 1
    stride: 1
    weight_filler {
      type: "msra"
    }
  }
}
layer {
  name: "conv2_1/sep/bn"
  type: "BatchNorm"
  bottom: "conv2_1/sep"
  top: "conv2_1/sep"
  param {
    lr_mult: 0
    decay_mult: 0
  }
  param {
    lr_mult: 0
    decay_mult: 0
  }
  param {
    lr_mult: 0
    decay_mult: 0
  }
}
layer {
  name: "conv2_1/sep/scale"
  type: "Scale"
  bottom: "conv2_1/sep"
  top: "conv2_1/sep"
  scale_param {
    filler {
      value: 1
    }
    bias_term: true
    bias_filler {
      value: 0
    }
  }
}
layer {
  name: "relu2_1/sep"
  type: "ReLU"
  bottom: "conv2_1/sep"
  top: "conv2_1/sep"
}
layer {
  name: "conv2_2/dw"
  type: "Convolution"
  bottom: "conv2_1/sep"
  top: "conv2_2/dw"
  param {
    lr_mult: 1
    decay_mult: 1
  }
  convolution_param {
    num_output: 64
    bias_term: false
    pad: 1
    kernel_size: 3
    group: 64
    stride: 2
    weight_filler {
      type: "msra"
    }
  }
}
layer {
  name: "conv2_2/dw/bn"
  type: "BatchNorm"
  bottom: "conv2_2/dw"
  top: "conv2_2/dw"
  param {
    lr_mult: 0
    decay_mult: 0
  }
  param {
    lr_mult: 0
    decay_mult: 0
  }
  param {
    lr_mult: 0
    decay_mult: 0
  }
}
layer {
  name: "conv2_2/dw/scale"
  type: "Scale"
  bottom: "conv2_2/dw"
  top: "conv2_2/dw"
  scale_param {
    filler {
      value: 1
    }
    bias_term: true
    bias_filler {
      value: 0
    }
  }
}
layer {
  name: "relu2_2/dw"
  type: "ReLU"
  bottom: "conv2_2/dw"
  top: "conv2_2/dw"
}
layer {
  name: "conv2_2/sep"
  type: "Convolution"
  bottom: "conv2_2/dw"
  top: "conv2_2/sep"
  param {
    lr_mult: 1
    decay_mult: 1
  }
  convolution_param {
    num_output: 128
    bias_term: false
    pad: 0
    kernel_size: 1
    stride: 1
    weight_filler {
      type: "msra"
    }
  }
}
layer {
  name: "conv2_2/sep/bn"
  type: "BatchNorm"
  bottom: "conv2_2/sep"
  top: "conv2_2/sep"
  param {
    lr_mult: 0
    decay_mult: 0
  }
  param {
    lr_mult: 0
    decay_mult: 0
  }
  param {
    lr_mult: 0
    decay_mult: 0
  }
}
layer {
  name: "conv2_2/sep/scale"
  type: "Scale"
  bottom: "conv2_2/sep"
  top: "conv2_2/sep"
  scale_param {
    filler {
      value: 1
    }
    bias_term: true
    bias_filler {
      value: 0
    }
  }
}
layer {
  name: "relu2_2/sep"
  type: "ReLU"
  bottom: "conv2_2/sep"
  top: "conv2_2/sep"
}
layer {
  name: "conv3_1/dw"
  type: "Convolution"
  bottom: "conv2_2/sep"
  top: "conv3_1/dw"
  param {
    lr_mult: 1
    decay_mult: 1
  }
  convolution_param {
    num_output: 128
    bias_term: false
    pad: 1
    kernel_size: 3
    group: 128
    stride: 1
    weight_filler {
      type: "msra"
    }
  }
}
layer {
  name: "conv3_1/dw/bn"
  type: "BatchNorm"
  bottom: "conv3_1/dw"
  top: "conv3_1/dw"
  param {
    lr_mult: 0
    decay_mult: 0
  }
  param {
    lr_mult: 0
    decay_mult: 0
  }
  param {
    lr_mult: 0
    decay_mult: 0
  }
}
layer {
  name: "conv3_1/dw/scale"
  type: "Scale"
  bottom: "conv3_1/dw"
  top: "conv3_1/dw"
  scale_param {
    filler {
      value: 1
    }
    bias_term: true
    bias_filler {
      value: 0
    }
  }
}
layer {
  name: "relu3_1/dw"
  type: "ReLU"
  bottom: "conv3_1/dw"
  top: "conv3_1/dw"
}
layer {
  name: "conv3_1/sep"
  type: "Convolution"
  bottom: "conv3_1/dw"
  top: "conv3_1/sep"
  param {
    lr_mult: 1
    decay_mult: 1
  }
  convolution_param {
    num_output: 128
    bias_term: false
    pad: 0
    kernel_size: 1
    stride: 1
    weight_filler {
      type: "msra"
    }
  }
}
layer {
  name: "conv3_1/sep/bn"
  type: "BatchNorm"
  bottom: "conv3_1/sep"
  top: "conv3_1/sep"
  param {
    lr_mult: 0
    decay_mult: 0
  }
  param {
    lr_mult: 0
    decay_mult: 0
  }
  param {
    lr_mult: 0
    decay_mult: 0
  }
}
layer {
  name: "conv3_1/sep/scale"
  type: "Scale"
  bottom: "conv3_1/sep"
  top: "conv3_1/sep"
  scale_param {
    filler {
      value: 1
    }
    bias_term: true
    bias_filler {
      value: 0
    }
  }
}
layer {
  name: "relu3_1/sep"
  type: "ReLU"
  bottom: "conv3_1/sep"
  top: "conv3_1/sep"
}
layer {
  name: "conv3_2/dw"
  type: "Convolution"
  bottom: "conv3_1/sep"
  top: "conv3_2/dw"
  param {
    lr_mult: 1
    decay_mult: 1
  }
  convolution_param {
    num_output: 128
    bias_term: false
    pad: 1
    kernel_size: 3
    group: 128
    stride: 2
    weight_filler {
      type: "msra"
    }
  }
}
layer {
  name: "conv3_2/dw/bn"
  type: "BatchNorm"
  bottom: "conv3_2/dw"
  top: "conv3_2/dw"
  param {
    lr_mult: 0
    decay_mult: 0
  }
  param {
    lr_mult: 0
    decay_mult: 0
  }
  param {
    lr_mult: 0
    decay_mult: 0
  }
}
layer {
  name: "conv3_2/dw/scale"
  type: "Scale"
  bottom: "conv3_2/dw"
  top: "conv3_2/dw"
  scale_param {
    filler {
      value: 1
    }
    bias_term: true
    bias_filler {
      value: 0
    }
  }
}
layer {
  name: "relu3_2/dw"
  type: "ReLU"
  bottom: "conv3_2/dw"
  top: "conv3_2/dw"
}
layer {
  name: "conv3_2/sep"
  type: "Convolution"
  bottom: "conv3_2/dw"
  top: "conv3_2/sep"
  param {
    lr_mult: 1
    decay_mult: 1
  }
  convolution_param {
    num_output: 256
    bias_term: false
    pad: 0
    kernel_size: 1
    stride: 1
    weight_filler {
      type: "msra"
    }
  }
}
layer {
  name: "conv3_2/sep/bn"
  type: "BatchNorm"
  bottom: "conv3_2/sep"
  top: "conv3_2/sep"
  param {
    lr_mult: 0
    decay_mult: 0
  }
  param {
    lr_mult: 0
    decay_mult: 0
  }
  param {
    lr_mult: 0
    decay_mult: 0
  }
}
layer {
  name: "conv3_2/sep/scale"
  type: "Scale"
  bottom: "conv3_2/sep"
  top: "conv3_2/sep"
  scale_param {
    filler {
      value: 1
    }
    bias_term: true
    bias_filler {
      value: 0
    }
  }
}
layer {
  name: "relu3_2/sep"
  type: "ReLU"
  bottom: "conv3_2/sep"
  top: "conv3_2/sep"
}
layer {
  name: "conv4_1/dw"
  type: "Convolution"
  bottom: "conv3_2/sep"
  top: "conv4_1/dw"
  param {
    lr_mult: 1
    decay_mult: 1
  }
  convolution_param {
    num_output: 256
    bias_term: false
    pad: 1
    kernel_size: 3
    group: 256
    stride: 1
    weight_filler {
      type: "msra"
    }
  }
}
layer {
  name: "conv4_1/dw/bn"
  type: "BatchNorm"
  bottom: "conv4_1/dw"
  top: "conv4_1/dw"
  param {
    lr_mult: 0
    decay_mult: 0
  }
  param {
    lr_mult: 0
    decay_mult: 0
  }
  param {
    lr_mult: 0
    decay_mult: 0
  }
}
layer {
  name: "conv4_1/dw/scale"
  type: "Scale"
  bottom: "conv4_1/dw"
  top: "conv4_1/dw"
  scale_param {
    filler {
      value: 1
    }
    bias_term: true
    bias_filler {
      value: 0
    }
  }
}
layer {
  name: "relu4_1/dw"
  type: "ReLU"
  bottom: "conv4_1/dw"
  top: "conv4_1/dw"
}
layer {
  name: "conv4_1/sep"
  type: "Convolution"
  bottom: "conv4_1/dw"
  top: "conv4_1/sep"
  param {
    lr_mult: 1
    decay_mult: 1
  }
  convolution_param {
    num_output: 256
    bias_term: false
    pad: 0
    kernel_size: 1
    stride: 1
    weight_filler {
      type: "msra"
    }
  }
}
layer {
  name: "conv4_1/sep/bn"
  type: "BatchNorm"
  bottom: "conv4_1/sep"
  top: "conv4_1/sep"
  param {
    lr_mult: 0
    decay_mult: 0
  }
  param {
    lr_mult: 0
    decay_mult: 0
  }
  param {
    lr_mult: 0
    decay_mult: 0
  }
}
layer {
  name: "conv4_1/sep/scale"
  type: "Scale"
  bottom: "conv4_1/sep"
  top: "conv4_1/sep"
  scale_param {
    filler {
      value: 1
    }
    bias_term: true
    bias_filler {
      value: 0
    }
  }
}
layer {
  name: "relu4_1/sep"
  type: "ReLU"
  bottom: "conv4_1/sep"
  top: "conv4_1/sep"
}
layer {
  name: "conv4_2/dw"
  type: "Convolution"
  bottom: "conv4_1/sep"
  top: "conv4_2/dw"
  param {
    lr_mult: 1
    decay_mult: 1
  }
  convolution_param {
    num_output: 256
    bias_term: false
    pad: 1
    kernel_size: 3
    group: 256
    stride: 2
    weight_filler {
      type: "msra"
    }
  }
}
layer {
  name: "conv4_2/dw/bn"
  type: "BatchNorm"
  bottom: "conv4_2/dw"
  top: "conv4_2/dw"
  param {
    lr_mult: 0
    decay_mult: 0
  }
  param {
    lr_mult: 0
    decay_mult: 0
  }
  param {
    lr_mult: 0
    decay_mult: 0
  }
}
layer {
  name: "conv4_2/dw/scale"
  type: "Scale"
  bottom: "conv4_2/dw"
  top: "conv4_2/dw"
  scale_param {
    filler {
      value: 1
    }
    bias_term: true
    bias_filler {
      value: 0
    }
  }
}
layer {
  name: "relu4_2/dw"
  type: "ReLU"
  bottom: "conv4_2/dw"
  top: "conv4_2/dw"
}
layer {
  name: "conv4_2/sep"
  type: "Convolution"
  bottom: "conv4_2/dw"
  top: "conv4_2/sep"
  param {
    lr_mult: 1
    decay_mult: 1
  }
  convolution_param {
    num_output: 512
    bias_term: false
    pad: 0
    kernel_size: 1
    stride: 1
    weight_filler {
      type: "msra"
    }
  }
}
layer {
  name: "conv4_2/sep/bn"
  type: "BatchNorm"
  bottom: "conv4_2/sep"
  top: "conv4_2/sep"
  param {
    lr_mult: 0
    decay_mult: 0
  }
  param {
    lr_mult: 0
    decay_mult: 0
  }
  param {
    lr_mult: 0
    decay_mult: 0
  }
}
layer {
  name: "conv4_2/sep/scale"
  type: "Scale"
  bottom: "conv4_2/sep"
  top: "conv4_2/sep"
  scale_param {
    filler {
      value: 1
    }
    bias_term: true
    bias_filler {
      value: 0
    }
  }
}
layer {
  name: "relu4_2/sep"
  type: "ReLU"
  bottom: "conv4_2/sep"
  top: "conv4_2/sep"
}
layer {
  name: "conv5_1/dw"
  type: "Convolution"
  bottom: "conv4_2/sep"
  top: "conv5_1/dw"
  param {
    lr_mult: 1
    decay_mult: 1
  }
  convolution_param {
    num_output: 512
    bias_term: false
    pad: 1
    kernel_size: 3
    group: 512
    stride: 1
    weight_filler {
      type: "msra"
    }
  }
}
layer {
  name: "conv5_1/dw/bn"
  type: "BatchNorm"
  bottom: "conv5_1/dw"
  top: "conv5_1/dw"
  param {
    lr_mult: 0
    decay_mult: 0
  }
  param {
    lr_mult: 0
    decay_mult: 0
  }
  param {
    lr_mult: 0
    decay_mult: 0
  }
}
layer {
  name: "conv5_1/dw/scale"
  type: "Scale"
  bottom: "conv5_1/dw"
  top: "conv5_1/dw"
  scale_param {
    filler {
      value: 1
    }
    bias_term: true
    bias_filler {
      value: 0
    }
  }
}
layer {
  name: "relu5_1/dw"
  type: "ReLU"
  bottom: "conv5_1/dw"
  top: "conv5_1/dw"
}
layer {
  name: "conv5_1/sep"
  type: "Convolution"
  bottom: "conv5_1/dw"
  top: "conv5_1/sep"
  param {
    lr_mult: 1
    decay_mult: 1
  }
  convolution_param {
    num_output: 512
    bias_term: false
    pad: 0
    kernel_size: 1
    stride: 1
    weight_filler {
      type: "msra"
    }
  }
}
layer {
  name: "conv5_1/sep/bn"
  type: "BatchNorm"
  bottom: "conv5_1/sep"
  top: "conv5_1/sep"
  param {
    lr_mult: 0
    decay_mult: 0
  }
  param {
    lr_mult: 0
    decay_mult: 0
  }
  param {
    lr_mult: 0
    decay_mult: 0
  }
}
layer {
  name: "conv5_1/sep/scale"
  type: "Scale"
  bottom: "conv5_1/sep"
  top: "conv5_1/sep"
  scale_param {
    filler {
      value: 1
    }
    bias_term: true
    bias_filler {
      value: 0
    }
  }
}
layer {
  name: "relu5_1/sep"
  type: "ReLU"
  bottom: "conv5_1/sep"
  top: "conv5_1/sep"
}
layer {
  name: "conv5_2/dw"
  type: "Convolution"
  bottom: "conv5_1/sep"
  top: "conv5_2/dw"
  param {
    lr_mult: 1
    decay_mult: 1
  }
  convolution_param {
    num_output: 512
    bias_term: false
    pad: 1
    kernel_size: 3
    group: 512
    stride: 1
    weight_filler {
      type: "msra"
    }
  }
}
layer {
  name: "conv5_2/dw/bn"
  type: "BatchNorm"
  bottom: "conv5_2/dw"
  top: "conv5_2/dw"
  param {
    lr_mult: 0
    decay_mult: 0
  }
  param {
    lr_mult: 0
    decay_mult: 0
  }
  param {
    lr_mult: 0
    decay_mult: 0
  }
}
layer {
  name: "conv5_2/dw/scale"
  type: "Scale"
  bottom: "conv5_2/dw"
  top: "conv5_2/dw"
  scale_param {
    filler {
      value: 1
    }
    bias_term: true
    bias_filler {
      value: 0
    }
  }
}
layer {
  name: "relu5_2/dw"
  type: "ReLU"
  bottom: "conv5_2/dw"
  top: "conv5_2/dw"
}
layer {
  name: "conv5_2/sep"
  type: "Convolution"
  bottom: "conv5_2/dw"
  top: "conv5_2/sep"
  param {
    lr_mult: 1
    decay_mult: 1
  }
  convolution_param {
    num_output: 512
    bias_term: false
    pad: 0
    kernel_size: 1
    stride: 1
    weight_filler {
      type: "msra"
    }
  }
}
layer {
  name: "conv5_2/sep/bn"
  type: "BatchNorm"
  bottom: "conv5_2/sep"
  top: "conv5_2/sep"
  param {
    lr_mult: 0
    decay_mult: 0
  }
  param {
    lr_mult: 0
    decay_mult: 0
  }
  param {
    lr_mult: 0
    decay_mult: 0
  }
}
layer {
  name: "conv5_2/sep/scale"
  type: "Scale"
  bottom: "conv5_2/sep"
  top: "conv5_2/sep"
  scale_param {
    filler {
      value: 1
    }
    bias_term: true
    bias_filler {
      value: 0
    }
  }
}
layer {
  name: "relu5_2/sep"
  type: "ReLU"
  bottom: "conv5_2/sep"
  top: "conv5_2/sep"
}
layer {
  name: "conv5_3/dw"
  type: "Convolution"
  bottom: "conv5_2/sep"
  top: "conv5_3/dw"
  param {
    lr_mult: 1
    decay_mult: 1
  }
  convolution_param {
    num_output: 512
    bias_term: false
    pad: 1
    kernel_size: 3
    group: 512
    stride: 1
    weight_filler {
      type: "msra"
    }
  }
}
layer {
  name: "conv5_3/dw/bn"
  type: "BatchNorm"
  bottom: "conv5_3/dw"
  top: "conv5_3/dw"
  param {
    lr_mult: 0
    decay_mult: 0
  }
  param {
    lr_mult: 0
    decay_mult: 0
  }
  param {
    lr_mult: 0
    decay_mult: 0
  }
}
layer {
  name: "conv5_3/dw/scale"
  type: "Scale"
  bottom: "conv5_3/dw"
  top: "conv5_3/dw"
  scale_param {
    filler {
      value: 1
    }
    bias_term: true
    bias_filler {
      value: 0
    }
  }
}
layer {
  name: "relu5_3/dw"
  type: "ReLU"
  bottom: "conv5_3/dw"
  top: "conv5_3/dw"
}
layer {
  name: "conv5_3/sep"
  type: "Convolution"
  bottom: "conv5_3/dw"
  top: "conv5_3/sep"
  param {
    lr_mult: 1
    decay_mult: 1
  }
  convolution_param {
    num_output: 512
    bias_term: false
    pad: 0
    kernel_size: 1
    stride: 1
    weight_filler {
      type: "msra"
    }
  }
}
layer {
  name: "conv5_3/sep/bn"
  type: "BatchNorm"
  bottom: "conv5_3/sep"
  top: "conv5_3/sep"
  param {
    lr_mult: 0
    decay_mult: 0
  }
  param {
    lr_mult: 0
    decay_mult: 0
  }
  param {
    lr_mult: 0
    decay_mult: 0
  }
}
layer {
  name: "conv5_3/sep/scale"
  type: "Scale"
  bottom: "conv5_3/sep"
  top: "conv5_3/sep"
  scale_param {
    filler {
      value: 1
    }
    bias_term: true
    bias_filler {
      value: 0
    }
  }
}
layer {
  name: "relu5_3/sep"
  type: "ReLU"
  bottom: "conv5_3/sep"
  top: "conv5_3/sep"
}
layer {
  name: "conv5_4/dw"
  type: "Convolution"
  bottom: "conv5_3/sep"
  top: "conv5_4/dw"
  param {
    lr_mult: 1
    decay_mult: 1
  }
  convolution_param {
    num_output: 512
    bias_term: false
    pad: 1
    kernel_size: 3
    group: 512
    stride: 1
    weight_filler {
      type: "msra"
    }
  }
}
layer {
  name: "conv5_4/dw/bn"
  type: "BatchNorm"
  bottom: "conv5_4/dw"
  top: "conv5_4/dw"
  param {
    lr_mult: 0
    decay_mult: 0
  }
  param {
    lr_mult: 0
    decay_mult: 0
  }
  param {
    lr_mult: 0
    decay_mult: 0
  }
}
layer {
  name: "conv5_4/dw/scale"
  type: "Scale"
  bottom: "conv5_4/dw"
  top: "conv5_4/dw"
  scale_param {
    filler {
      value: 1
    }
    bias_term: true
    bias_filler {
      value: 0
    }
  }
}
layer {
  name: "relu5_4/dw"
  type: "ReLU"
  bottom: "conv5_4/dw"
  top: "conv5_4/dw"
}
layer {
  name: "conv5_4/sep"
  type: "Convolution"
  bottom: "conv5_4/dw"
  top: "conv5_4/sep"
  param {
    lr_mult: 1
    decay_mult: 1
  }
  convolution_param {
    num_output: 512
    bias_term: false
    pad: 0
    kernel_size: 1
    stride: 1
    weight_filler {
      type: "msra"
    }
  }
}
layer {
  name: "conv5_4/sep/bn"
  type: "BatchNorm"
  bottom: "conv5_4/sep"
  top: "conv5_4/sep"
  param {
    lr_mult: 0
    decay_mult: 0
  }
  param {
    lr_mult: 0
    decay_mult: 0
  }
  param {
    lr_mult: 0
    decay_mult: 0
  }
}
layer {
  name: "conv5_4/sep/scale"
  type: "Scale"
  bottom: "conv5_4/sep"
  top: "conv5_4/sep"
  scale_param {
    filler {
      value: 1
    }
    bias_term: true
    bias_filler {
      value: 0
    }
  }
}
layer {
  name: "relu5_4/sep"
  type: "ReLU"
  bottom: "conv5_4/sep"
  top: "conv5_4/sep"
}
layer {
  name: "conv5_5/dw"
  type: "Convolution"
  bottom: "conv5_4/sep"
  top: "conv5_5/dw"
  param {
    lr_mult: 1
    decay_mult: 1
  }
  convolution_param {
    num_output: 512
    bias_term: false
    pad: 1
    kernel_size: 3
    group: 512
    stride: 1
    weight_filler {
      type: "msra"
    }
  }
}
layer {
  name: "conv5_5/dw/bn"
  type: "BatchNorm"
  bottom: "conv5_5/dw"
  top: "conv5_5/dw"
  param {
    lr_mult: 0
    decay_mult: 0
  }
  param {
    lr_mult: 0
    decay_mult: 0
  }
  param {
    lr_mult: 0
    decay_mult: 0
  }
}
layer {
  name: "conv5_5/dw/scale"
  type: "Scale"
  bottom: "conv5_5/dw"
  top: "conv5_5/dw"
  scale_param {
    filler {
      value: 1
    }
    bias_term: true
    bias_filler {
      value: 0
    }
  }
}
layer {
  name: "relu5_5/dw"
  type: "ReLU"
  bottom: "conv5_5/dw"
  top: "conv5_5/dw"
}
layer {
  name: "conv5_5/sep"
  type: "Convolution"
  bottom: "conv5_5/dw"
  top: "conv5_5/sep"
  param {
    lr_mult: 1
    decay_mult: 1
  }
  convolution_param {
    num_output: 512
    bias_term: false
    pad: 0
    kernel_size: 1
    stride: 1
    weight_filler {
      type: "msra"
    }
  }
}
layer {
  name: "conv5_5/sep/bn"
  type: "BatchNorm"
  bottom: "conv5_5/sep"
  top: "conv5_5/sep"
  param {
    lr_mult: 0
    decay_mult: 0
  }
  param {
    lr_mult: 0
    decay_mult: 0
  }
  param {
    lr_mult: 0
    decay_mult: 0
  }
}
layer {
  name: "conv5_5/sep/scale"
  type: "Scale"
  bottom: "conv5_5/sep"
  top: "conv5_5/sep"
  scale_param {
    filler {
      value: 1
    }
    bias_term: true
    bias_filler {
      value: 0
    }
  }
}
layer {
  name: "relu5_5/sep"
  type: "ReLU"
  bottom: "conv5_5/sep"
  top: "conv5_5/sep"
}
layer {
  name: "conv5_6/dw"
  type: "Convolution"
  bottom: "conv5_5/sep"
  top: "conv5_6/dw"
  param {
    lr_mult: 1
    decay_mult: 1
  }
  convolution_param {
    num_output: 512
    bias_term: false
    pad: 1
    kernel_size: 3
    group: 512
    stride: 2
    weight_filler {
      type: "msra"
    }
  }
}
layer {
  name: "conv5_6/dw/bn"
  type: "BatchNorm"
  bottom: "conv5_6/dw"
  top: "conv5_6/dw"
  param {
    lr_mult: 0
    decay_mult: 0
  }
  param {
    lr_mult: 0
    decay_mult: 0
  }
  param {
    lr_mult: 0
    decay_mult: 0
  }
}
layer {
  name: "conv5_6/dw/scale"
  type: "Scale"
  bottom: "conv5_6/dw"
  top: "conv5_6/dw"
  scale_param {
    filler {
      value: 1
    }
    bias_term: true
    bias_filler {
      value: 0
    }
  }
}
layer {
  name: "relu5_6/dw"
  type: "ReLU"
  bottom: "conv5_6/dw"
  top: "conv5_6/dw"
}
layer {
  name: "conv5_6/sep"
  type: "Convolution"
  bottom: "conv5_6/dw"
  top: "conv5_6/sep"
  param {
    lr_mult: 1
    decay_mult: 1
  }
  convolution_param {
    num_output: 1024
    bias_term: false
    pad: 0
    kernel_size: 1
    stride: 1
    weight_filler {
      type: "msra"
    }
  }
}
layer {
  name: "conv5_6/sep/bn"
  type: "BatchNorm"
  bottom: "conv5_6/sep"
  top: "conv5_6/sep"
  param {
    lr_mult: 0
    decay_mult: 0
  }
  param {
    lr_mult: 0
    decay_mult: 0
  }
  param {
    lr_mult: 0
    decay_mult: 0
  }
}
layer {
  name: "conv5_6/sep/scale"
  type: "Scale"
  bottom: "conv5_6/sep"
  top: "conv5_6/sep"
  scale_param {
    filler {
      value: 1
    }
    bias_term: true
    bias_filler {
      value: 0
    }
  }
}
layer {
  name: "relu5_6/sep"
  type: "ReLU"
  bottom: "conv5_6/sep"
  top: "conv5_6/sep"
}
layer {
  name: "conv6/dw"
  type: "Convolution"
  bottom: "conv5_6/sep"
  top: "conv6/dw"
  param {
    lr_mult: 1
    decay_mult: 1
  }
  convolution_param {
    num_output: 1024
    bias_term: false
    pad: 1
    kernel_size: 3
    group: 1024
    stride: 1
    weight_filler {
      type: "msra"
    }
  }
}
layer {
  name: "conv6/dw/bn"
  type: "BatchNorm"
  bottom: "conv6/dw"
  top: "conv6/dw"
  param {
    lr_mult: 0
    decay_mult: 0
  }
  param {
    lr_mult: 0
    decay_mult: 0
  }
  param {
    lr_mult: 0
    decay_mult: 0
  }
}
layer {
  name: "conv6/dw/scale"
  type: "Scale"
  bottom: "conv6/dw"
  top: "conv6/dw"
  scale_param {
    filler {
      value: 1
    }
    bias_term: true
    bias_filler {
      value: 0
    }
  }
}
layer {
  name: "relu6/dw"
  type: "ReLU"
  bottom: "conv6/dw"
  top: "conv6/dw"
}
layer {
  name: "conv6/sep"
  type: "Convolution"
  bottom: "conv6/dw"
  top: "conv6/sep"
  param {
    lr_mult: 1
    decay_mult: 1
  }
  convolution_param {
    num_output: 1024
    bias_term: false
    pad: 0
    kernel_size: 1
    stride: 1
    weight_filler {
      type: "msra"
    }
  }
}
layer {
  name: "conv6/sep/bn"
  type: "BatchNorm"
  bottom: "conv6/sep"
  top: "conv6/sep"
  param {
    lr_mult: 0
    decay_mult: 0
  }
  param {
    lr_mult: 0
    decay_mult: 0
  }
  param {
    lr_mult: 0
    decay_mult: 0
  }
}
layer {
  name: "conv6/sep/scale"
  type: "Scale"
  bottom: "conv6/sep"
  top: "conv6/sep"
  scale_param {
    filler {
      value: 1
    }
    bias_term: true
    bias_filler {
      value: 0
    }
  }
}
layer {
  name: "relu6/sep"
  type: "ReLU"
  bottom: "conv6/sep"
  top: "conv6/sep"
}
layer {
  name: "pool6"
  type: "Pooling"
  bottom: "conv6/sep"
  top: "pool6"
  pooling_param {
    pool: AVE
    global_pooling: true
  }
}
layer {
  name: "fc1"
  type: "Convolution"
  bottom: "pool6"
  top: "fc1"
  param {
    lr_mult: 10
    decay_mult: 1
  }
  param {
    lr_mult: 20
    decay_mult: 0
  }
  convolution_param {
    num_output: 7
    kernel_size: 1
    weight_filler {
      type: "msra"
    }
    bias_filler {
      type: "constant"
      value: 0
    }
  }
}
layer {
  name: "softmax"
  type: "Softmax"
  bottom: "fc1"
  top: "prob"
}
layer {
  name: "accuracy"
  type: "Accuracy"
  bottom: "prob"
  bottom: "label"
  top: "accuracy"
}
layer {
  name: "loss"
  type: "SoftmaxWithLoss"
  bottom: "fc1"
  bottom: "label"
  loss_weight: 1
}
I0823 13:59:45.368355 20733 layer_factory.hpp:77] Creating layer data
I0823 13:59:45.370193 20740 db_lmdb.cpp:35] Opened lmdb /home/research/disk1/zwx/AvatarData/valdata/val_noeyes_lmdb_256
I0823 13:59:45.370649 20733 data_layer.cpp:41] output data size: 50,3,224,224
I0823 13:59:45.405164 20733 layer_factory.hpp:77] Creating layer label_data_1_split
I0823 13:59:45.405309 20733 layer_factory.hpp:77] Creating layer conv1
I0823 13:59:45.405550 20733 layer_factory.hpp:77] Creating layer conv1/bn
I0823 13:59:45.405761 20733 layer_factory.hpp:77] Creating layer conv1/scale
I0823 13:59:45.405822 20733 layer_factory.hpp:77] Creating layer conv1/scale
I0823 13:59:45.405954 20733 layer_factory.hpp:77] Creating layer relu1
I0823 13:59:45.405987 20733 layer_factory.hpp:77] Creating layer conv2_1/dw
I0823 13:59:45.406219 20733 layer_factory.hpp:77] Creating layer conv2_1/dw/bn
I0823 13:59:45.408743 20733 layer_factory.hpp:77] Creating layer conv2_1/dw/scale
I0823 13:59:45.408793 20733 layer_factory.hpp:77] Creating layer conv2_1/dw/scale
I0823 13:59:45.408929 20733 layer_factory.hpp:77] Creating layer relu2_1/dw
I0823 13:59:45.408957 20733 layer_factory.hpp:77] Creating layer conv2_1/sep
I0823 13:59:45.409152 20733 layer_factory.hpp:77] Creating layer conv2_1/sep/bn
I0823 13:59:45.409351 20733 layer_factory.hpp:77] Creating layer conv2_1/sep/scale
I0823 13:59:45.409395 20733 layer_factory.hpp:77] Creating layer conv2_1/sep/scale
I0823 13:59:45.409526 20733 layer_factory.hpp:77] Creating layer relu2_1/sep
I0823 13:59:45.409559 20733 layer_factory.hpp:77] Creating layer conv2_2/dw
I0823 13:59:45.409749 20733 layer_factory.hpp:77] Creating layer conv2_2/dw/bn
I0823 13:59:45.409929 20733 layer_factory.hpp:77] Creating layer conv2_2/dw/scale
I0823 13:59:45.409974 20733 layer_factory.hpp:77] Creating layer conv2_2/dw/scale
I0823 13:59:45.410099 20733 layer_factory.hpp:77] Creating layer relu2_2/dw
I0823 13:59:45.410128 20733 layer_factory.hpp:77] Creating layer conv2_2/sep
I0823 13:59:45.410372 20733 layer_factory.hpp:77] Creating layer conv2_2/sep/bn
I0823 13:59:45.410554 20733 layer_factory.hpp:77] Creating layer conv2_2/sep/scale
I0823 13:59:45.410595 20733 layer_factory.hpp:77] Creating layer conv2_2/sep/scale
I0823 13:59:45.410708 20733 layer_factory.hpp:77] Creating layer relu2_2/sep
I0823 13:59:45.410737 20733 layer_factory.hpp:77] Creating layer conv3_1/dw
I0823 13:59:45.410923 20733 layer_factory.hpp:77] Creating layer conv3_1/dw/bn
I0823 13:59:45.411101 20733 layer_factory.hpp:77] Creating layer conv3_1/dw/scale
I0823 13:59:45.411144 20733 layer_factory.hpp:77] Creating layer conv3_1/dw/scale
I0823 13:59:45.411257 20733 layer_factory.hpp:77] Creating layer relu3_1/dw
I0823 13:59:45.411283 20733 layer_factory.hpp:77] Creating layer conv3_1/sep
I0823 13:59:45.411587 20733 layer_factory.hpp:77] Creating layer conv3_1/sep/bn
I0823 13:59:45.411772 20733 layer_factory.hpp:77] Creating layer conv3_1/sep/scale
I0823 13:59:45.411813 20733 layer_factory.hpp:77] Creating layer conv3_1/sep/scale
I0823 13:59:45.411926 20733 layer_factory.hpp:77] Creating layer relu3_1/sep
I0823 13:59:45.411952 20733 layer_factory.hpp:77] Creating layer conv3_2/dw
I0823 13:59:45.412137 20733 layer_factory.hpp:77] Creating layer conv3_2/dw/bn
I0823 13:59:45.412317 20733 layer_factory.hpp:77] Creating layer conv3_2/dw/scale
I0823 13:59:45.412362 20733 layer_factory.hpp:77] Creating layer conv3_2/dw/scale
I0823 13:59:45.412477 20733 layer_factory.hpp:77] Creating layer relu3_2/dw
I0823 13:59:45.412528 20733 layer_factory.hpp:77] Creating layer conv3_2/sep
I0823 13:59:45.412989 20733 layer_factory.hpp:77] Creating layer conv3_2/sep/bn
I0823 13:59:45.413164 20733 layer_factory.hpp:77] Creating layer conv3_2/sep/scale
I0823 13:59:45.413205 20733 layer_factory.hpp:77] Creating layer conv3_2/sep/scale
I0823 13:59:45.413314 20733 layer_factory.hpp:77] Creating layer relu3_2/sep
I0823 13:59:45.413343 20733 layer_factory.hpp:77] Creating layer conv4_1/dw
I0823 13:59:45.413535 20733 layer_factory.hpp:77] Creating layer conv4_1/dw/bn
I0823 13:59:45.413710 20733 layer_factory.hpp:77] Creating layer conv4_1/dw/scale
I0823 13:59:45.413754 20733 layer_factory.hpp:77] Creating layer conv4_1/dw/scale
I0823 13:59:45.413863 20733 layer_factory.hpp:77] Creating layer relu4_1/dw
I0823 13:59:45.413897 20733 layer_factory.hpp:77] Creating layer conv4_1/sep
I0823 13:59:45.414608 20733 layer_factory.hpp:77] Creating layer conv4_1/sep/bn
I0823 13:59:45.414779 20733 layer_factory.hpp:77] Creating layer conv4_1/sep/scale
I0823 13:59:45.414822 20733 layer_factory.hpp:77] Creating layer conv4_1/sep/scale
I0823 13:59:45.414938 20733 layer_factory.hpp:77] Creating layer relu4_1/sep
I0823 13:59:45.414973 20733 layer_factory.hpp:77] Creating layer conv4_2/dw
I0823 13:59:45.415182 20733 layer_factory.hpp:77] Creating layer conv4_2/dw/bn
I0823 13:59:45.415374 20733 layer_factory.hpp:77] Creating layer conv4_2/dw/scale
I0823 13:59:45.415417 20733 layer_factory.hpp:77] Creating layer conv4_2/dw/scale
I0823 13:59:45.415522 20733 layer_factory.hpp:77] Creating layer relu4_2/dw
I0823 13:59:45.415558 20733 layer_factory.hpp:77] Creating layer conv4_2/sep
I0823 13:59:45.416820 20733 layer_factory.hpp:77] Creating layer conv4_2/sep/bn
I0823 13:59:45.417003 20733 layer_factory.hpp:77] Creating layer conv4_2/sep/scale
I0823 13:59:45.417047 20733 layer_factory.hpp:77] Creating layer conv4_2/sep/scale
I0823 13:59:45.417163 20733 layer_factory.hpp:77] Creating layer relu4_2/sep
I0823 13:59:45.417196 20733 layer_factory.hpp:77] Creating layer conv5_1/dw
I0823 13:59:45.417423 20733 layer_factory.hpp:77] Creating layer conv5_1/dw/bn
I0823 13:59:45.417600 20733 layer_factory.hpp:77] Creating layer conv5_1/dw/scale
I0823 13:59:45.417644 20733 layer_factory.hpp:77] Creating layer conv5_1/dw/scale
I0823 13:59:45.417752 20733 layer_factory.hpp:77] Creating layer relu5_1/dw
I0823 13:59:45.417796 20733 layer_factory.hpp:77] Creating layer conv5_1/sep
I0823 13:59:45.420964 20733 layer_factory.hpp:77] Creating layer conv5_1/sep/bn
I0823 13:59:45.421175 20733 layer_factory.hpp:77] Creating layer conv5_1/sep/scale
I0823 13:59:45.421223 20733 layer_factory.hpp:77] Creating layer conv5_1/sep/scale
I0823 13:59:45.421337 20733 layer_factory.hpp:77] Creating layer relu5_1/sep
I0823 13:59:45.421367 20733 layer_factory.hpp:77] Creating layer conv5_2/dw
I0823 13:59:45.421609 20733 layer_factory.hpp:77] Creating layer conv5_2/dw/bn
I0823 13:59:45.421785 20733 layer_factory.hpp:77] Creating layer conv5_2/dw/scale
I0823 13:59:45.421835 20733 layer_factory.hpp:77] Creating layer conv5_2/dw/scale
I0823 13:59:45.421955 20733 layer_factory.hpp:77] Creating layer relu5_2/dw
I0823 13:59:45.422000 20733 layer_factory.hpp:77] Creating layer conv5_2/sep
I0823 13:59:45.424293 20733 layer_factory.hpp:77] Creating layer conv5_2/sep/bn
I0823 13:59:45.424477 20733 layer_factory.hpp:77] Creating layer conv5_2/sep/scale
I0823 13:59:45.424562 20733 layer_factory.hpp:77] Creating layer conv5_2/sep/scale
I0823 13:59:45.424687 20733 layer_factory.hpp:77] Creating layer relu5_2/sep
I0823 13:59:45.424726 20733 layer_factory.hpp:77] Creating layer conv5_3/dw
I0823 13:59:45.424958 20733 layer_factory.hpp:77] Creating layer conv5_3/dw/bn
I0823 13:59:45.425144 20733 layer_factory.hpp:77] Creating layer conv5_3/dw/scale
I0823 13:59:45.425191 20733 layer_factory.hpp:77] Creating layer conv5_3/dw/scale
I0823 13:59:45.425330 20733 layer_factory.hpp:77] Creating layer relu5_3/dw
I0823 13:59:45.425367 20733 layer_factory.hpp:77] Creating layer conv5_3/sep
I0823 13:59:45.430763 20733 layer_factory.hpp:77] Creating layer conv5_3/sep/bn
I0823 13:59:45.430971 20733 layer_factory.hpp:77] Creating layer conv5_3/sep/scale
I0823 13:59:45.431023 20733 layer_factory.hpp:77] Creating layer conv5_3/sep/scale
I0823 13:59:45.431149 20733 layer_factory.hpp:77] Creating layer relu5_3/sep
I0823 13:59:45.431180 20733 layer_factory.hpp:77] Creating layer conv5_4/dw
I0823 13:59:45.431417 20733 layer_factory.hpp:77] Creating layer conv5_4/dw/bn
I0823 13:59:45.431598 20733 layer_factory.hpp:77] Creating layer conv5_4/dw/scale
I0823 13:59:45.431643 20733 layer_factory.hpp:77] Creating layer conv5_4/dw/scale
I0823 13:59:45.431774 20733 layer_factory.hpp:77] Creating layer relu5_4/dw
I0823 13:59:45.431805 20733 layer_factory.hpp:77] Creating layer conv5_4/sep
I0823 13:59:45.434104 20733 layer_factory.hpp:77] Creating layer conv5_4/sep/bn
I0823 13:59:45.434286 20733 layer_factory.hpp:77] Creating layer conv5_4/sep/scale
I0823 13:59:45.434329 20733 layer_factory.hpp:77] Creating layer conv5_4/sep/scale
I0823 13:59:45.434445 20733 layer_factory.hpp:77] Creating layer relu5_4/sep
I0823 13:59:45.434480 20733 layer_factory.hpp:77] Creating layer conv5_5/dw
I0823 13:59:45.434703 20733 layer_factory.hpp:77] Creating layer conv5_5/dw/bn
I0823 13:59:45.434895 20733 layer_factory.hpp:77] Creating layer conv5_5/dw/scale
I0823 13:59:45.434962 20733 layer_factory.hpp:77] Creating layer conv5_5/dw/scale
I0823 13:59:45.435073 20733 layer_factory.hpp:77] Creating layer relu5_5/dw
I0823 13:59:45.435103 20733 layer_factory.hpp:77] Creating layer conv5_5/sep
I0823 13:59:45.438206 20733 layer_factory.hpp:77] Creating layer conv5_5/sep/bn
I0823 13:59:45.438402 20733 layer_factory.hpp:77] Creating layer conv5_5/sep/scale
I0823 13:59:45.438449 20733 layer_factory.hpp:77] Creating layer conv5_5/sep/scale
I0823 13:59:45.438572 20733 layer_factory.hpp:77] Creating layer relu5_5/sep
I0823 13:59:45.438606 20733 layer_factory.hpp:77] Creating layer conv5_6/dw
I0823 13:59:45.438835 20733 layer_factory.hpp:77] Creating layer conv5_6/dw/bn
I0823 13:59:45.439019 20733 layer_factory.hpp:77] Creating layer conv5_6/dw/scale
I0823 13:59:45.439074 20733 layer_factory.hpp:77] Creating layer conv5_6/dw/scale
I0823 13:59:45.439193 20733 layer_factory.hpp:77] Creating layer relu5_6/dw
I0823 13:59:45.439221 20733 layer_factory.hpp:77] Creating layer conv5_6/sep
I0823 13:59:45.444440 20733 layer_factory.hpp:77] Creating layer conv5_6/sep/bn
I0823 13:59:45.444666 20733 layer_factory.hpp:77] Creating layer conv5_6/sep/scale
I0823 13:59:45.444722 20733 layer_factory.hpp:77] Creating layer conv5_6/sep/scale
I0823 13:59:45.444850 20733 layer_factory.hpp:77] Creating layer relu5_6/sep
I0823 13:59:45.444890 20733 layer_factory.hpp:77] Creating layer conv6/dw
I0823 13:59:45.445178 20733 layer_factory.hpp:77] Creating layer conv6/dw/bn
I0823 13:59:45.445381 20733 layer_factory.hpp:77] Creating layer conv6/dw/scale
I0823 13:59:45.445431 20733 layer_factory.hpp:77] Creating layer conv6/dw/scale
I0823 13:59:45.445555 20733 layer_factory.hpp:77] Creating layer relu6/dw
I0823 13:59:45.445596 20733 layer_factory.hpp:77] Creating layer conv6/sep
I0823 13:59:45.457604 20733 layer_factory.hpp:77] Creating layer conv6/sep/bn
I0823 13:59:45.457826 20733 layer_factory.hpp:77] Creating layer conv6/sep/scale
I0823 13:59:45.457876 20733 layer_factory.hpp:77] Creating layer conv6/sep/scale
I0823 13:59:45.458003 20733 layer_factory.hpp:77] Creating layer relu6/sep
I0823 13:59:45.458034 20733 layer_factory.hpp:77] Creating layer pool6
I0823 13:59:45.458099 20733 layer_factory.hpp:77] Creating layer fc1
I0823 13:59:45.458420 20733 layer_factory.hpp:77] Creating layer fc1_fc1_0_split
I0823 13:59:45.458497 20733 layer_factory.hpp:77] Creating layer softmax
I0823 13:59:45.458580 20733 layer_factory.hpp:77] Creating layer accuracy
I0823 13:59:45.458619 20733 layer_factory.hpp:77] Creating layer loss
I0823 13:59:45.458647 20733 layer_factory.hpp:77] Creating layer loss
I0823 13:59:45.459503 20733 solver.cpp:60] Solver scaffolding done.
I0823 13:59:45.463675 20733 caffe.cpp:155] Finetuning from model/mn_iter_15000.caffemodel
I0823 13:59:45.478107 20733 caffe.cpp:251] Starting Optimization
I0823 13:59:45.478116 20733 solver.cpp:279] Solving MobileNet
I0823 13:59:45.478119 20733 solver.cpp:280] Learning Rate Policy: step
I0823 13:59:45.482260 20733 solver.cpp:337] Iteration 0, Testing net (#0)
I0823 14:03:57.593197 20733 solver.cpp:404]     Test net output #0: accuracy = 0.13936
I0823 14:04:00.934201 20733 solver.cpp:228] Iteration 0, loss = 2.03372
I0823 14:04:00.934226 20733 solver.cpp:244]     Train net output #0: accuracy = 0.18
I0823 14:04:00.934238 20733 sgd_solver.cpp:106] Iteration 0, lr = 0.0001
I0823 14:09:34.912899 20733 solver.cpp:228] Iteration 100, loss = 0.466245
I0823 14:09:34.912974 20733 solver.cpp:244]     Train net output #0: accuracy = 0.88
I0823 14:09:34.912983 20733 sgd_solver.cpp:106] Iteration 100, lr = 0.0001
I0823 14:15:08.429236 20733 solver.cpp:228] Iteration 200, loss = 0.293049
I0823 14:15:08.433835 20733 solver.cpp:244]     Train net output #0: accuracy = 0.94
I0823 14:15:08.433845 20733 sgd_solver.cpp:106] Iteration 200, lr = 0.0001
I0823 14:20:51.920366 20733 solver.cpp:228] Iteration 300, loss = 0.132847
I0823 14:20:51.920483 20733 solver.cpp:244]     Train net output #0: accuracy = 1
I0823 14:20:51.920495 20733 sgd_solver.cpp:106] Iteration 300, lr = 0.0001
I0823 14:26:34.731868 20733 solver.cpp:228] Iteration 400, loss = 0.174858
I0823 14:26:34.740586 20733 solver.cpp:244]     Train net output #0: accuracy = 0.96
I0823 14:26:34.740610 20733 sgd_solver.cpp:106] Iteration 400, lr = 0.0001
I0823 14:32:19.392534 20733 solver.cpp:228] Iteration 500, loss = 0.126987
I0823 14:32:19.393055 20733 solver.cpp:244]     Train net output #0: accuracy = 0.96
I0823 14:32:19.393069 20733 sgd_solver.cpp:106] Iteration 500, lr = 0.0001
I0823 14:38:05.261704 20733 solver.cpp:228] Iteration 600, loss = 0.108951
I0823 14:38:05.261791 20733 solver.cpp:244]     Train net output #0: accuracy = 1
I0823 14:38:05.261802 20733 sgd_solver.cpp:106] Iteration 600, lr = 0.0001
I0823 14:43:47.532862 20733 solver.cpp:228] Iteration 700, loss = 0.0607918
I0823 14:43:47.532948 20733 solver.cpp:244]     Train net output #0: accuracy = 1
I0823 14:43:47.532958 20733 sgd_solver.cpp:106] Iteration 700, lr = 0.0001
I0823 14:49:30.706537 20733 solver.cpp:228] Iteration 800, loss = 0.106576
I0823 14:49:30.706620 20733 solver.cpp:244]     Train net output #0: accuracy = 1
I0823 14:49:30.706630 20733 sgd_solver.cpp:106] Iteration 800, lr = 0.0001
I0823 14:55:12.788650 20733 solver.cpp:228] Iteration 900, loss = 0.0661509
I0823 14:55:12.788740 20733 solver.cpp:244]     Train net output #0: accuracy = 1
I0823 14:55:12.788753 20733 sgd_solver.cpp:106] Iteration 900, lr = 0.0001
I0823 15:00:58.489332 20733 solver.cpp:337] Iteration 1000, Testing net (#0)
I0823 15:05:05.052661 20733 solver.cpp:404]     Test net output #0: accuracy = 0.72112
I0823 15:05:08.598407 20733 solver.cpp:228] Iteration 1000, loss = 0.0579675
I0823 15:05:08.598449 20733 solver.cpp:244]     Train net output #0: accuracy = 0.98
I0823 15:05:08.598459 20733 sgd_solver.cpp:106] Iteration 1000, lr = 0.0001
I0823 15:10:54.891034 20733 solver.cpp:228] Iteration 1100, loss = 0.0671914
I0823 15:10:54.891113 20733 solver.cpp:244]     Train net output #0: accuracy = 1
I0823 15:10:54.891122 20733 sgd_solver.cpp:106] Iteration 1100, lr = 0.0001
I0823 15:16:40.218643 20733 solver.cpp:228] Iteration 1200, loss = 0.0563553
I0823 15:16:40.218744 20733 solver.cpp:244]     Train net output #0: accuracy = 1
I0823 15:16:40.218755 20733 sgd_solver.cpp:106] Iteration 1200, lr = 0.0001
I0823 15:22:27.001701 20733 solver.cpp:228] Iteration 1300, loss = 0.0467902
I0823 15:22:27.001814 20733 solver.cpp:244]     Train net output #0: accuracy = 1
I0823 15:22:27.001826 20733 sgd_solver.cpp:106] Iteration 1300, lr = 0.0001
I0823 15:28:11.551959 20733 solver.cpp:228] Iteration 1400, loss = 0.0478742
I0823 15:28:11.552723 20733 solver.cpp:244]     Train net output #0: accuracy = 1
I0823 15:28:11.552733 20733 sgd_solver.cpp:106] Iteration 1400, lr = 0.0001
I0823 15:33:56.504283 20733 solver.cpp:228] Iteration 1500, loss = 0.0657973
I0823 15:33:56.504374 20733 solver.cpp:244]     Train net output #0: accuracy = 0.98
I0823 15:33:56.504384 20733 sgd_solver.cpp:106] Iteration 1500, lr = 0.0001
I0823 15:39:44.741534 20733 solver.cpp:228] Iteration 1600, loss = 0.0520296
I0823 15:39:44.741641 20733 solver.cpp:244]     Train net output #0: accuracy = 1
I0823 15:39:44.741655 20733 sgd_solver.cpp:106] Iteration 1600, lr = 0.0001
I0823 15:45:31.951051 20733 solver.cpp:228] Iteration 1700, loss = 0.100534
I0823 15:45:31.952280 20733 solver.cpp:244]     Train net output #0: accuracy = 0.96
I0823 15:45:31.952312 20733 sgd_solver.cpp:106] Iteration 1700, lr = 0.0001
I0823 15:51:19.431978 20733 solver.cpp:228] Iteration 1800, loss = 0.0654353
I0823 15:51:19.462910 20733 solver.cpp:244]     Train net output #0: accuracy = 0.98
I0823 15:51:19.462944 20733 sgd_solver.cpp:106] Iteration 1800, lr = 0.0001
I0823 15:57:06.993619 20733 solver.cpp:228] Iteration 1900, loss = 0.0480875
I0823 15:57:06.998602 20733 solver.cpp:244]     Train net output #0: accuracy = 1
I0823 15:57:06.998623 20733 sgd_solver.cpp:106] Iteration 1900, lr = 0.0001
I0823 16:02:51.105762 20733 solver.cpp:337] Iteration 2000, Testing net (#0)
I0823 16:07:00.233098 20733 solver.cpp:404]     Test net output #0: accuracy = 0.72904
I0823 16:07:03.856737 20733 solver.cpp:228] Iteration 2000, loss = 0.0501687
I0823 16:07:03.856770 20733 solver.cpp:244]     Train net output #0: accuracy = 1
I0823 16:07:03.856777 20733 sgd_solver.cpp:106] Iteration 2000, lr = 0.0001
I0823 16:12:50.520017 20733 solver.cpp:228] Iteration 2100, loss = 0.0555675
I0823 16:12:50.520114 20733 solver.cpp:244]     Train net output #0: accuracy = 0.98
I0823 16:12:50.520125 20733 sgd_solver.cpp:106] Iteration 2100, lr = 0.0001
I0823 16:18:39.760087 20733 solver.cpp:228] Iteration 2200, loss = 0.0311552
I0823 16:18:39.760155 20733 solver.cpp:244]     Train net output #0: accuracy = 1
I0823 16:18:39.760164 20733 sgd_solver.cpp:106] Iteration 2200, lr = 0.0001
I0823 16:24:25.023705 20733 solver.cpp:228] Iteration 2300, loss = 0.0356395
I0823 16:24:25.023797 20733 solver.cpp:244]     Train net output #0: accuracy = 1
I0823 16:24:25.023807 20733 sgd_solver.cpp:106] Iteration 2300, lr = 0.0001
I0823 16:30:19.366930 20733 solver.cpp:228] Iteration 2400, loss = 0.0140173
I0823 16:30:19.367040 20733 solver.cpp:244]     Train net output #0: accuracy = 1
I0823 16:30:19.367053 20733 sgd_solver.cpp:106] Iteration 2400, lr = 0.0001
I0823 16:36:09.447957 20733 solver.cpp:228] Iteration 2500, loss = 0.0285424
I0823 16:36:09.448029 20733 solver.cpp:244]     Train net output #0: accuracy = 1
I0823 16:36:09.448040 20733 sgd_solver.cpp:106] Iteration 2500, lr = 0.0001
I0823 16:41:55.333726 20733 solver.cpp:228] Iteration 2600, loss = 0.029646
I0823 16:41:55.337189 20733 solver.cpp:244]     Train net output #0: accuracy = 1
I0823 16:41:55.337209 20733 sgd_solver.cpp:106] Iteration 2600, lr = 0.0001
I0823 16:47:51.614112 20733 solver.cpp:228] Iteration 2700, loss = 0.0473065
I0823 16:47:51.614192 20733 solver.cpp:244]     Train net output #0: accuracy = 1
I0823 16:47:51.614202 20733 sgd_solver.cpp:106] Iteration 2700, lr = 0.0001
I0823 16:53:52.998881 20733 solver.cpp:228] Iteration 2800, loss = 0.0376647
I0823 16:53:53.004024 20733 solver.cpp:244]     Train net output #0: accuracy = 1
I0823 16:53:53.004053 20733 sgd_solver.cpp:106] Iteration 2800, lr = 0.0001
I0823 16:59:52.986651 20733 solver.cpp:228] Iteration 2900, loss = 0.0232808
I0823 16:59:52.986732 20733 solver.cpp:244]     Train net output #0: accuracy = 1
I0823 16:59:52.986742 20733 sgd_solver.cpp:106] Iteration 2900, lr = 0.0001
I0823 17:05:47.466657 20733 solver.cpp:337] Iteration 3000, Testing net (#0)
I0823 17:10:02.931525 20733 solver.cpp:404]     Test net output #0: accuracy = 0.73848
I0823 17:10:07.034392 20733 solver.cpp:228] Iteration 3000, loss = 0.0244913
I0823 17:10:07.034521 20733 solver.cpp:244]     Train net output #0: accuracy = 1
I0823 17:10:07.034566 20733 sgd_solver.cpp:106] Iteration 3000, lr = 0.0001
I0823 17:16:02.083470 20733 solver.cpp:228] Iteration 3100, loss = 0.0160013
I0823 17:16:02.083647 20733 solver.cpp:244]     Train net output #0: accuracy = 1
I0823 17:16:02.083659 20733 sgd_solver.cpp:106] Iteration 3100, lr = 0.0001
I0823 17:21:54.682787 20733 solver.cpp:228] Iteration 3200, loss = 0.046146
I0823 17:21:54.682906 20733 solver.cpp:244]     Train net output #0: accuracy = 1
I0823 17:21:54.682950 20733 sgd_solver.cpp:106] Iteration 3200, lr = 0.0001
I0823 17:27:53.966513 20733 solver.cpp:228] Iteration 3300, loss = 0.0187206
I0823 17:27:53.966609 20733 solver.cpp:244]     Train net output #0: accuracy = 1
I0823 17:27:53.966622 20733 sgd_solver.cpp:106] Iteration 3300, lr = 0.0001
I0823 17:33:53.689750 20733 solver.cpp:228] Iteration 3400, loss = 0.0650134
I0823 17:33:53.689858 20733 solver.cpp:244]     Train net output #0: accuracy = 0.98
I0823 17:33:53.689877 20733 sgd_solver.cpp:106] Iteration 3400, lr = 0.0001
I0823 17:39:54.208087 20733 solver.cpp:228] Iteration 3500, loss = 0.0277836
I0823 17:39:54.208192 20733 solver.cpp:244]     Train net output #0: accuracy = 1
I0823 17:39:54.208205 20733 sgd_solver.cpp:106] Iteration 3500, lr = 0.0001
I0823 17:46:00.953280 20733 solver.cpp:228] Iteration 3600, loss = 0.0251593
I0823 17:46:00.953402 20733 solver.cpp:244]     Train net output #0: accuracy = 1
I0823 17:46:00.953415 20733 sgd_solver.cpp:106] Iteration 3600, lr = 0.0001
I0823 17:51:49.325793 20733 solver.cpp:228] Iteration 3700, loss = 0.0216086
I0823 17:51:49.325932 20733 solver.cpp:244]     Train net output #0: accuracy = 1
I0823 17:51:49.325953 20733 sgd_solver.cpp:106] Iteration 3700, lr = 0.0001
I0823 17:57:41.270028 20733 solver.cpp:228] Iteration 3800, loss = 0.0181678
I0823 17:57:41.275038 20733 solver.cpp:244]     Train net output #0: accuracy = 1
I0823 17:57:41.275053 20733 sgd_solver.cpp:106] Iteration 3800, lr = 0.0001
I0823 18:03:30.669657 20733 solver.cpp:228] Iteration 3900, loss = 0.0208312
I0823 18:03:30.684582 20733 solver.cpp:244]     Train net output #0: accuracy = 1
I0823 18:03:30.684597 20733 sgd_solver.cpp:106] Iteration 3900, lr = 0.0001
I0823 18:09:17.411248 20733 solver.cpp:337] Iteration 4000, Testing net (#0)
I0823 18:13:29.791357 20733 solver.cpp:404]     Test net output #0: accuracy = 0.73856
I0823 18:13:33.195399 20733 solver.cpp:228] Iteration 4000, loss = 0.0196556
I0823 18:13:33.195446 20733 solver.cpp:244]     Train net output #0: accuracy = 1
I0823 18:13:33.195456 20733 sgd_solver.cpp:106] Iteration 4000, lr = 0.0001
I0823 18:19:21.650565 20733 solver.cpp:228] Iteration 4100, loss = 0.0168519
I0823 18:19:21.650754 20733 solver.cpp:244]     Train net output #0: accuracy = 1
I0823 18:19:21.650769 20733 sgd_solver.cpp:106] Iteration 4100, lr = 0.0001
I0823 18:25:05.309245 20733 solver.cpp:228] Iteration 4200, loss = 0.00853942
I0823 18:25:05.310252 20733 solver.cpp:244]     Train net output #0: accuracy = 1
I0823 18:25:05.310276 20733 sgd_solver.cpp:106] Iteration 4200, lr = 0.0001
I0823 18:30:48.805693 20733 solver.cpp:228] Iteration 4300, loss = 0.0533998
I0823 18:30:48.833161 20733 solver.cpp:244]     Train net output #0: accuracy = 0.96
I0823 18:30:48.833196 20733 sgd_solver.cpp:106] Iteration 4300, lr = 0.0001
I0823 18:36:32.392022 20733 solver.cpp:228] Iteration 4400, loss = 0.0321421
I0823 18:36:32.392112 20733 solver.cpp:244]     Train net output #0: accuracy = 1
I0823 18:36:32.392122 20733 sgd_solver.cpp:106] Iteration 4400, lr = 0.0001
I0823 18:42:20.992208 20733 solver.cpp:228] Iteration 4500, loss = 0.0109986
I0823 18:42:20.992307 20733 solver.cpp:244]     Train net output #0: accuracy = 1
I0823 18:42:20.992318 20733 sgd_solver.cpp:106] Iteration 4500, lr = 0.0001
I0823 18:48:13.232918 20733 solver.cpp:228] Iteration 4600, loss = 0.0198643
I0823 18:48:13.233036 20733 solver.cpp:244]     Train net output #0: accuracy = 1
I0823 18:48:13.233047 20733 sgd_solver.cpp:106] Iteration 4600, lr = 0.0001
I0823 18:54:01.563704 20733 solver.cpp:228] Iteration 4700, loss = 0.0150085
I0823 18:54:01.593101 20733 solver.cpp:244]     Train net output #0: accuracy = 1
I0823 18:54:01.593124 20733 sgd_solver.cpp:106] Iteration 4700, lr = 0.0001
I0823 18:59:51.895392 20733 solver.cpp:228] Iteration 4800, loss = 0.0135715
I0823 18:59:51.895478 20733 solver.cpp:244]     Train net output #0: accuracy = 1
I0823 18:59:51.895489 20733 sgd_solver.cpp:106] Iteration 4800, lr = 0.0001
I0823 19:05:42.591172 20733 solver.cpp:228] Iteration 4900, loss = 0.0138932
I0823 19:05:42.604598 20733 solver.cpp:244]     Train net output #0: accuracy = 1
I0823 19:05:42.604619 20733 sgd_solver.cpp:106] Iteration 4900, lr = 0.0001
I0823 19:11:30.909405 20733 solver.cpp:454] Snapshotting to binary proto file model/mn_iter_5000.caffemodel
I0823 19:11:30.949149 20733 sgd_solver.cpp:273] Snapshotting solver state to binary proto file model/mn_iter_5000.solverstate
I0823 19:11:31.011042 20733 solver.cpp:337] Iteration 5000, Testing net (#0)
I0823 19:15:40.823797 20733 solver.cpp:404]     Test net output #0: accuracy = 0.74192
I0823 19:15:44.371106 20733 solver.cpp:228] Iteration 5000, loss = 0.0242109
I0823 19:15:44.371140 20733 solver.cpp:244]     Train net output #0: accuracy = 1
I0823 19:15:44.371148 20733 sgd_solver.cpp:106] Iteration 5000, lr = 0.0001
I0823 19:21:34.582152 20733 solver.cpp:228] Iteration 5100, loss = 0.0188961
I0823 19:21:34.582253 20733 solver.cpp:244]     Train net output #0: accuracy = 1
I0823 19:21:34.582264 20733 sgd_solver.cpp:106] Iteration 5100, lr = 0.0001
I0823 19:27:24.496266 20733 solver.cpp:228] Iteration 5200, loss = 0.0220916
I0823 19:27:24.500591 20733 solver.cpp:244]     Train net output #0: accuracy = 1
I0823 19:27:24.500610 20733 sgd_solver.cpp:106] Iteration 5200, lr = 0.0001
I0823 19:33:13.372005 20733 solver.cpp:228] Iteration 5300, loss = 0.0298198
I0823 19:33:13.373695 20733 solver.cpp:244]     Train net output #0: accuracy = 1
I0823 19:33:13.373725 20733 sgd_solver.cpp:106] Iteration 5300, lr = 0.0001
I0823 19:39:03.408581 20733 solver.cpp:228] Iteration 5400, loss = 0.0140983
I0823 19:39:03.408669 20733 solver.cpp:244]     Train net output #0: accuracy = 1
I0823 19:39:03.408680 20733 sgd_solver.cpp:106] Iteration 5400, lr = 0.0001
I0823 19:44:58.978376 20733 solver.cpp:228] Iteration 5500, loss = 0.00822809
I0823 19:44:58.978448 20733 solver.cpp:244]     Train net output #0: accuracy = 1
I0823 19:44:58.978458 20733 sgd_solver.cpp:106] Iteration 5500, lr = 0.0001
I0823 19:50:40.437219 20733 solver.cpp:228] Iteration 5600, loss = 0.0108408
I0823 19:50:40.437309 20733 solver.cpp:244]     Train net output #0: accuracy = 1
I0823 19:50:40.437317 20733 sgd_solver.cpp:106] Iteration 5600, lr = 0.0001
I0823 19:56:22.296525 20733 solver.cpp:228] Iteration 5700, loss = 0.0283703
I0823 19:56:22.296658 20733 solver.cpp:244]     Train net output #0: accuracy = 1
I0823 19:56:22.296669 20733 sgd_solver.cpp:106] Iteration 5700, lr = 0.0001
I0823 20:02:04.384140 20733 solver.cpp:228] Iteration 5800, loss = 0.00650511
I0823 20:02:04.384227 20733 solver.cpp:244]     Train net output #0: accuracy = 1
I0823 20:02:04.384237 20733 sgd_solver.cpp:106] Iteration 5800, lr = 0.0001
I0823 20:07:46.099010 20733 solver.cpp:228] Iteration 5900, loss = 0.00745063
I0823 20:07:46.099107 20733 solver.cpp:244]     Train net output #0: accuracy = 1
I0823 20:07:46.099118 20733 sgd_solver.cpp:106] Iteration 5900, lr = 0.0001
I0823 20:13:25.233434 20733 solver.cpp:337] Iteration 6000, Testing net (#0)
I0823 20:17:29.125798 20733 solver.cpp:404]     Test net output #0: accuracy = 0.74472
I0823 20:17:32.518172 20733 solver.cpp:228] Iteration 6000, loss = 0.0198346
I0823 20:17:32.518208 20733 solver.cpp:244]     Train net output #0: accuracy = 1
I0823 20:17:32.518215 20733 sgd_solver.cpp:106] Iteration 6000, lr = 0.0001
I0823 20:23:14.442773 20733 solver.cpp:228] Iteration 6100, loss = 0.0281084
I0823 20:23:14.444289 20733 solver.cpp:244]     Train net output #0: accuracy = 1
I0823 20:23:14.444303 20733 sgd_solver.cpp:106] Iteration 6100, lr = 0.0001
I0823 20:28:57.390326 20733 solver.cpp:228] Iteration 6200, loss = 0.00940841
I0823 20:28:57.390424 20733 solver.cpp:244]     Train net output #0: accuracy = 1
I0823 20:28:57.390434 20733 sgd_solver.cpp:106] Iteration 6200, lr = 0.0001
I0823 20:34:38.065384 20733 solver.cpp:228] Iteration 6300, loss = 0.011191
I0823 20:34:38.065480 20733 solver.cpp:244]     Train net output #0: accuracy = 1
I0823 20:34:38.065490 20733 sgd_solver.cpp:106] Iteration 6300, lr = 0.0001
I0823 20:40:18.496058 20733 solver.cpp:228] Iteration 6400, loss = 0.0143205
I0823 20:40:18.496134 20733 solver.cpp:244]     Train net output #0: accuracy = 1
I0823 20:40:18.496145 20733 sgd_solver.cpp:106] Iteration 6400, lr = 0.0001
I0823 20:45:59.052614 20733 solver.cpp:228] Iteration 6500, loss = 0.0202691
I0823 20:45:59.052685 20733 solver.cpp:244]     Train net output #0: accuracy = 1
I0823 20:45:59.052695 20733 sgd_solver.cpp:106] Iteration 6500, lr = 0.0001
I0823 20:51:39.411049 20733 solver.cpp:228] Iteration 6600, loss = 0.0282185
I0823 20:51:39.411133 20733 solver.cpp:244]     Train net output #0: accuracy = 1
I0823 20:51:39.411141 20733 sgd_solver.cpp:106] Iteration 6600, lr = 0.0001
I0823 20:57:19.949465 20733 solver.cpp:228] Iteration 6700, loss = 0.0108415
I0823 20:57:19.949576 20733 solver.cpp:244]     Train net output #0: accuracy = 1
I0823 20:57:19.949589 20733 sgd_solver.cpp:106] Iteration 6700, lr = 0.0001
I0823 21:03:00.764760 20733 solver.cpp:228] Iteration 6800, loss = 0.00754846
I0823 21:03:00.764865 20733 solver.cpp:244]     Train net output #0: accuracy = 1
I0823 21:03:00.764879 20733 sgd_solver.cpp:106] Iteration 6800, lr = 0.0001
I0823 21:08:41.678544 20733 solver.cpp:228] Iteration 6900, loss = 0.0211532
I0823 21:08:41.678622 20733 solver.cpp:244]     Train net output #0: accuracy = 1
I0823 21:08:41.678632 20733 sgd_solver.cpp:106] Iteration 6900, lr = 0.0001
I0823 21:14:18.703477 20733 solver.cpp:337] Iteration 7000, Testing net (#0)
I0823 21:18:21.379618 20733 solver.cpp:404]     Test net output #0: accuracy = 0.73968
I0823 21:18:24.720091 20733 solver.cpp:228] Iteration 7000, loss = 0.00819875
I0823 21:18:24.720121 20733 solver.cpp:244]     Train net output #0: accuracy = 1
I0823 21:18:24.720130 20733 sgd_solver.cpp:106] Iteration 7000, lr = 0.0001
I0823 21:24:04.871515 20733 solver.cpp:228] Iteration 7100, loss = 0.0128055
I0823 21:24:04.871593 20733 solver.cpp:244]     Train net output #0: accuracy = 1
I0823 21:24:04.871603 20733 sgd_solver.cpp:106] Iteration 7100, lr = 0.0001
I0823 21:29:45.431375 20733 solver.cpp:228] Iteration 7200, loss = 0.0209406
I0823 21:29:45.431452 20733 solver.cpp:244]     Train net output #0: accuracy = 1
I0823 21:29:45.431460 20733 sgd_solver.cpp:106] Iteration 7200, lr = 0.0001
I0823 21:35:26.009455 20733 solver.cpp:228] Iteration 7300, loss = 0.0143725
I0823 21:35:26.010443 20733 solver.cpp:244]     Train net output #0: accuracy = 1
I0823 21:35:26.010452 20733 sgd_solver.cpp:106] Iteration 7300, lr = 0.0001
I0823 21:41:06.402189 20733 solver.cpp:228] Iteration 7400, loss = 0.0289345
I0823 21:41:06.402268 20733 solver.cpp:244]     Train net output #0: accuracy = 1
I0823 21:41:06.402277 20733 sgd_solver.cpp:106] Iteration 7400, lr = 0.0001
I0823 21:46:46.727356 20733 solver.cpp:228] Iteration 7500, loss = 0.0134614
I0823 21:46:46.727445 20733 solver.cpp:244]     Train net output #0: accuracy = 1
I0823 21:46:46.727455 20733 sgd_solver.cpp:106] Iteration 7500, lr = 0.0001
I0823 21:52:27.019783 20733 solver.cpp:228] Iteration 7600, loss = 0.0185581
I0823 21:52:27.019879 20733 solver.cpp:244]     Train net output #0: accuracy = 1
I0823 21:52:27.019889 20733 sgd_solver.cpp:106] Iteration 7600, lr = 0.0001
I0823 21:58:07.666126 20733 solver.cpp:228] Iteration 7700, loss = 0.0369285
I0823 21:58:07.676547 20733 solver.cpp:244]     Train net output #0: accuracy = 0.98
I0823 21:58:07.676555 20733 sgd_solver.cpp:106] Iteration 7700, lr = 0.0001
I0823 22:03:47.727561 20733 solver.cpp:228] Iteration 7800, loss = 0.0064584
I0823 22:03:47.727668 20733 solver.cpp:244]     Train net output #0: accuracy = 1
I0823 22:03:47.727677 20733 sgd_solver.cpp:106] Iteration 7800, lr = 0.0001
I0823 22:09:29.971081 20733 solver.cpp:228] Iteration 7900, loss = 0.00542277
I0823 22:09:29.971175 20733 solver.cpp:244]     Train net output #0: accuracy = 1
I0823 22:09:29.971189 20733 sgd_solver.cpp:106] Iteration 7900, lr = 0.0001
I0823 22:15:08.036762 20733 solver.cpp:337] Iteration 8000, Testing net (#0)
I0823 22:19:10.542783 20733 solver.cpp:404]     Test net output #0: accuracy = 0.73672
I0823 22:19:13.905853 20733 solver.cpp:228] Iteration 8000, loss = 0.00411395
I0823 22:19:13.905885 20733 solver.cpp:244]     Train net output #0: accuracy = 1
I0823 22:19:13.905892 20733 sgd_solver.cpp:106] Iteration 8000, lr = 0.0001
I0823 22:24:54.239908 20733 solver.cpp:228] Iteration 8100, loss = 0.0529243
I0823 22:24:54.240005 20733 solver.cpp:244]     Train net output #0: accuracy = 0.98
I0823 22:24:54.240020 20733 sgd_solver.cpp:106] Iteration 8100, lr = 0.0001
I0823 22:30:34.782862 20733 solver.cpp:228] Iteration 8200, loss = 0.00703084
I0823 22:30:34.782989 20733 solver.cpp:244]     Train net output #0: accuracy = 1
I0823 22:30:34.782999 20733 sgd_solver.cpp:106] Iteration 8200, lr = 0.0001
I0823 22:36:14.231036 20733 solver.cpp:228] Iteration 8300, loss = 0.00806626
I0823 22:36:14.233180 20733 solver.cpp:244]     Train net output #0: accuracy = 1
I0823 22:36:14.233201 20733 sgd_solver.cpp:106] Iteration 8300, lr = 0.0001
I0823 22:41:52.971318 20733 solver.cpp:228] Iteration 8400, loss = 0.0244862
I0823 22:41:52.971421 20733 solver.cpp:244]     Train net output #0: accuracy = 0.98
I0823 22:41:52.971431 20733 sgd_solver.cpp:106] Iteration 8400, lr = 0.0001
I0823 22:47:32.907114 20733 solver.cpp:228] Iteration 8500, loss = 0.018097
I0823 22:47:32.907187 20733 solver.cpp:244]     Train net output #0: accuracy = 1
I0823 22:47:32.907198 20733 sgd_solver.cpp:106] Iteration 8500, lr = 0.0001
I0823 22:53:12.761808 20733 solver.cpp:228] Iteration 8600, loss = 0.0135964
I0823 22:53:12.761883 20733 solver.cpp:244]     Train net output #0: accuracy = 1
I0823 22:53:12.761893 20733 sgd_solver.cpp:106] Iteration 8600, lr = 0.0001
I0823 22:58:53.174860 20733 solver.cpp:228] Iteration 8700, loss = 0.00640771
I0823 22:58:53.174957 20733 solver.cpp:244]     Train net output #0: accuracy = 1
I0823 22:58:53.174967 20733 sgd_solver.cpp:106] Iteration 8700, lr = 0.0001
I0823 23:04:33.608870 20733 solver.cpp:228] Iteration 8800, loss = 0.00625718
I0823 23:04:33.608970 20733 solver.cpp:244]     Train net output #0: accuracy = 1
I0823 23:04:33.608979 20733 sgd_solver.cpp:106] Iteration 8800, lr = 0.0001
I0823 23:10:13.676697 20733 solver.cpp:228] Iteration 8900, loss = 0.00646121
I0823 23:10:13.676829 20733 solver.cpp:244]     Train net output #0: accuracy = 1
I0823 23:10:13.676838 20733 sgd_solver.cpp:106] Iteration 8900, lr = 0.0001
I0823 23:15:50.693959 20733 solver.cpp:337] Iteration 9000, Testing net (#0)
I0823 23:19:53.032765 20733 solver.cpp:404]     Test net output #0: accuracy = 0.74664
I0823 23:19:56.361163 20733 solver.cpp:228] Iteration 9000, loss = 0.0389283
I0823 23:19:56.361194 20733 solver.cpp:244]     Train net output #0: accuracy = 0.98
I0823 23:19:56.361202 20733 sgd_solver.cpp:106] Iteration 9000, lr = 0.0001
I0823 23:25:36.251837 20733 solver.cpp:228] Iteration 9100, loss = 0.0142986
I0823 23:25:36.251914 20733 solver.cpp:244]     Train net output #0: accuracy = 1
I0823 23:25:36.251924 20733 sgd_solver.cpp:106] Iteration 9100, lr = 0.0001
I0823 23:31:16.110848 20733 solver.cpp:228] Iteration 9200, loss = 0.00877543
I0823 23:31:16.110932 20733 solver.cpp:244]     Train net output #0: accuracy = 1
I0823 23:31:16.110941 20733 sgd_solver.cpp:106] Iteration 9200, lr = 0.0001
I0823 23:36:56.027940 20733 solver.cpp:228] Iteration 9300, loss = 0.0045306
I0823 23:36:56.028023 20733 solver.cpp:244]     Train net output #0: accuracy = 1
I0823 23:36:56.028033 20733 sgd_solver.cpp:106] Iteration 9300, lr = 0.0001
I0823 23:42:35.990103 20733 solver.cpp:228] Iteration 9400, loss = 0.00425326
I0823 23:42:35.990262 20733 solver.cpp:244]     Train net output #0: accuracy = 1
I0823 23:42:35.990272 20733 sgd_solver.cpp:106] Iteration 9400, lr = 0.0001
I0823 23:48:15.544900 20733 solver.cpp:228] Iteration 9500, loss = 0.0064505
I0823 23:48:15.544982 20733 solver.cpp:244]     Train net output #0: accuracy = 1
I0823 23:48:15.544991 20733 sgd_solver.cpp:106] Iteration 9500, lr = 0.0001
I0823 23:53:55.123673 20733 solver.cpp:228] Iteration 9600, loss = 0.00376884
I0823 23:53:55.123751 20733 solver.cpp:244]     Train net output #0: accuracy = 1
I0823 23:53:55.123760 20733 sgd_solver.cpp:106] Iteration 9600, lr = 0.0001
I0823 23:59:28.618160 20733 solver.cpp:228] Iteration 9700, loss = 0.00401538
I0823 23:59:28.618242 20733 solver.cpp:244]     Train net output #0: accuracy = 1
I0823 23:59:28.618250 20733 sgd_solver.cpp:106] Iteration 9700, lr = 0.0001
I0824 00:05:02.103600 20733 solver.cpp:228] Iteration 9800, loss = 0.00588634
I0824 00:05:02.103675 20733 solver.cpp:244]     Train net output #0: accuracy = 1
I0824 00:05:02.103687 20733 sgd_solver.cpp:106] Iteration 9800, lr = 0.0001
I0824 00:10:35.579493 20733 solver.cpp:228] Iteration 9900, loss = 0.0082695
I0824 00:10:35.579560 20733 solver.cpp:244]     Train net output #0: accuracy = 1
I0824 00:10:35.579568 20733 sgd_solver.cpp:106] Iteration 9900, lr = 0.0001
I0824 00:16:05.830678 20733 solver.cpp:454] Snapshotting to binary proto file model/mn_iter_10000.caffemodel
I0824 00:16:05.853052 20733 sgd_solver.cpp:273] Snapshotting solver state to binary proto file model/mn_iter_10000.solverstate
I0824 00:16:05.861021 20733 solver.cpp:337] Iteration 10000, Testing net (#0)
I0824 00:20:03.553407 20733 solver.cpp:404]     Test net output #0: accuracy = 0.73784
I0824 00:20:06.793190 20733 solver.cpp:228] Iteration 10000, loss = 0.0125987
I0824 00:20:06.793225 20733 solver.cpp:244]     Train net output #0: accuracy = 1
I0824 00:20:06.793234 20733 sgd_solver.cpp:106] Iteration 10000, lr = 0.0001
I0824 00:25:40.304714 20733 solver.cpp:228] Iteration 10100, loss = 0.00860214
I0824 00:25:40.304786 20733 solver.cpp:244]     Train net output #0: accuracy = 1
I0824 00:25:40.304797 20733 sgd_solver.cpp:106] Iteration 10100, lr = 0.0001
I0824 00:31:13.809648 20733 solver.cpp:228] Iteration 10200, loss = 0.0105396
I0824 00:31:13.809720 20733 solver.cpp:244]     Train net output #0: accuracy = 1
I0824 00:31:13.809731 20733 sgd_solver.cpp:106] Iteration 10200, lr = 0.0001
I0824 00:36:47.306529 20733 solver.cpp:228] Iteration 10300, loss = 0.016888
I0824 00:36:47.306602 20733 solver.cpp:244]     Train net output #0: accuracy = 1
I0824 00:36:47.306613 20733 sgd_solver.cpp:106] Iteration 10300, lr = 0.0001
I0824 00:42:21.325954 20733 solver.cpp:228] Iteration 10400, loss = 0.0218149
I0824 00:42:21.326023 20733 solver.cpp:244]     Train net output #0: accuracy = 1
I0824 00:42:21.326035 20733 sgd_solver.cpp:106] Iteration 10400, lr = 0.0001
I0824 00:47:54.809566 20733 solver.cpp:228] Iteration 10500, loss = 0.00484453
I0824 00:47:54.809644 20733 solver.cpp:244]     Train net output #0: accuracy = 1
I0824 00:47:54.809655 20733 sgd_solver.cpp:106] Iteration 10500, lr = 0.0001
I0824 00:53:28.290091 20733 solver.cpp:228] Iteration 10600, loss = 0.0119091
I0824 00:53:28.290164 20733 solver.cpp:244]     Train net output #0: accuracy = 1
I0824 00:53:28.290176 20733 sgd_solver.cpp:106] Iteration 10600, lr = 0.0001
I0824 00:59:01.755642 20733 solver.cpp:228] Iteration 10700, loss = 0.00346409
I0824 00:59:01.755694 20733 solver.cpp:244]     Train net output #0: accuracy = 1
I0824 00:59:01.755704 20733 sgd_solver.cpp:106] Iteration 10700, lr = 0.0001
I0824 01:04:45.680770 20733 solver.cpp:228] Iteration 10800, loss = 0.00855091
I0824 01:04:45.680840 20733 solver.cpp:244]     Train net output #0: accuracy = 1
I0824 01:04:45.680851 20733 sgd_solver.cpp:106] Iteration 10800, lr = 0.0001
I0824 01:10:19.154117 20733 solver.cpp:228] Iteration 10900, loss = 0.0049894
I0824 01:10:19.154224 20733 solver.cpp:244]     Train net output #0: accuracy = 1
I0824 01:10:19.154237 20733 sgd_solver.cpp:106] Iteration 10900, lr = 0.0001
I0824 01:15:49.366204 20733 solver.cpp:337] Iteration 11000, Testing net (#0)
I0824 01:19:47.032294 20733 solver.cpp:404]     Test net output #0: accuracy = 0.74216
I0824 01:19:50.272562 20733 solver.cpp:228] Iteration 11000, loss = 0.0048499
I0824 01:19:50.272598 20733 solver.cpp:244]     Train net output #0: accuracy = 1
I0824 01:19:50.272609 20733 sgd_solver.cpp:106] Iteration 11000, lr = 0.0001
I0824 01:25:23.748914 20733 solver.cpp:228] Iteration 11100, loss = 0.00581418
I0824 01:25:23.748989 20733 solver.cpp:244]     Train net output #0: accuracy = 1
I0824 01:25:23.749001 20733 sgd_solver.cpp:106] Iteration 11100, lr = 0.0001
I0824 01:31:00.223327 20733 solver.cpp:228] Iteration 11200, loss = 0.0261288
I0824 01:31:00.223395 20733 solver.cpp:244]     Train net output #0: accuracy = 0.98
I0824 01:31:00.223407 20733 sgd_solver.cpp:106] Iteration 11200, lr = 0.0001
I0824 01:36:33.702996 20733 solver.cpp:228] Iteration 11300, loss = 0.00783456
I0824 01:36:33.703069 20733 solver.cpp:244]     Train net output #0: accuracy = 1
I0824 01:36:33.703081 20733 sgd_solver.cpp:106] Iteration 11300, lr = 0.0001
I0824 01:42:07.175357 20733 solver.cpp:228] Iteration 11400, loss = 0.0257424
I0824 01:42:07.175443 20733 solver.cpp:244]     Train net output #0: accuracy = 0.98
I0824 01:42:07.175457 20733 sgd_solver.cpp:106] Iteration 11400, lr = 0.0001
I0824 01:47:40.628952 20733 solver.cpp:228] Iteration 11500, loss = 0.0239888
I0824 01:47:40.629024 20733 solver.cpp:244]     Train net output #0: accuracy = 1
I0824 01:47:40.629034 20733 sgd_solver.cpp:106] Iteration 11500, lr = 0.0001
I0824 01:53:14.099737 20733 solver.cpp:228] Iteration 11600, loss = 0.0157474
I0824 01:53:14.099818 20733 solver.cpp:244]     Train net output #0: accuracy = 1
I0824 01:53:14.099830 20733 sgd_solver.cpp:106] Iteration 11600, lr = 0.0001
I0824 01:58:50.627439 20733 solver.cpp:228] Iteration 11700, loss = 0.0158427
I0824 01:58:50.627493 20733 solver.cpp:244]     Train net output #0: accuracy = 1
I0824 01:58:50.627503 20733 sgd_solver.cpp:106] Iteration 11700, lr = 0.0001
I0824 02:04:24.117959 20733 solver.cpp:228] Iteration 11800, loss = 0.0193424
I0824 02:04:24.118027 20733 solver.cpp:244]     Train net output #0: accuracy = 1
I0824 02:04:24.118038 20733 sgd_solver.cpp:106] Iteration 11800, lr = 0.0001
I0824 02:09:57.578162 20733 solver.cpp:228] Iteration 11900, loss = 0.0161245
I0824 02:09:57.578233 20733 solver.cpp:244]     Train net output #0: accuracy = 1
I0824 02:09:57.578244 20733 sgd_solver.cpp:106] Iteration 11900, lr = 0.0001
I0824 02:15:27.782044 20733 solver.cpp:337] Iteration 12000, Testing net (#0)
I0824 02:19:25.439610 20733 solver.cpp:404]     Test net output #0: accuracy = 0.74224
I0824 02:19:28.679039 20733 solver.cpp:228] Iteration 12000, loss = 0.0217273
I0824 02:19:28.679071 20733 solver.cpp:244]     Train net output #0: accuracy = 1
I0824 02:19:28.679081 20733 sgd_solver.cpp:106] Iteration 12000, lr = 0.0001
I0824 02:25:06.525845 20733 solver.cpp:228] Iteration 12100, loss = 0.0190543
I0824 02:25:06.525915 20733 solver.cpp:244]     Train net output #0: accuracy = 0.98
I0824 02:25:06.525926 20733 sgd_solver.cpp:106] Iteration 12100, lr = 0.0001
I0824 02:30:39.983686 20733 solver.cpp:228] Iteration 12200, loss = 0.00471699
I0824 02:30:39.983736 20733 solver.cpp:244]     Train net output #0: accuracy = 1
I0824 02:30:39.983747 20733 sgd_solver.cpp:106] Iteration 12200, lr = 0.0001
I0824 02:36:13.416471 20733 solver.cpp:228] Iteration 12300, loss = 0.00313773
I0824 02:36:13.416546 20733 solver.cpp:244]     Train net output #0: accuracy = 1
I0824 02:36:13.416558 20733 sgd_solver.cpp:106] Iteration 12300, lr = 0.0001
I0824 02:41:46.859859 20733 solver.cpp:228] Iteration 12400, loss = 0.0041688
I0824 02:41:46.859935 20733 solver.cpp:244]     Train net output #0: accuracy = 1
I0824 02:41:46.859947 20733 sgd_solver.cpp:106] Iteration 12400, lr = 0.0001
I0824 02:47:20.337599 20733 solver.cpp:228] Iteration 12500, loss = 0.0133667
I0824 02:47:20.337699 20733 solver.cpp:244]     Train net output #0: accuracy = 1
I0824 02:47:20.337713 20733 sgd_solver.cpp:106] Iteration 12500, lr = 0.0001
I0824 02:52:53.795152 20733 solver.cpp:228] Iteration 12600, loss = 0.00552391
I0824 02:52:53.795228 20733 solver.cpp:244]     Train net output #0: accuracy = 1
I0824 02:52:53.795241 20733 sgd_solver.cpp:106] Iteration 12600, lr = 0.0001
I0824 02:58:27.211786 20733 solver.cpp:228] Iteration 12700, loss = 0.0122829
I0824 02:58:27.211848 20733 solver.cpp:244]     Train net output #0: accuracy = 1
I0824 02:58:27.211860 20733 sgd_solver.cpp:106] Iteration 12700, lr = 0.0001
I0824 03:04:00.673236 20733 solver.cpp:228] Iteration 12800, loss = 0.00772006
I0824 03:04:00.673302 20733 solver.cpp:244]     Train net output #0: accuracy = 1
I0824 03:04:00.673313 20733 sgd_solver.cpp:106] Iteration 12800, lr = 0.0001
I0824 03:09:34.093451 20733 solver.cpp:228] Iteration 12900, loss = 0.00345977
I0824 03:09:34.093499 20733 solver.cpp:244]     Train net output #0: accuracy = 1
I0824 03:09:34.093510 20733 sgd_solver.cpp:106] Iteration 12900, lr = 0.0001
I0824 03:15:04.275964 20733 solver.cpp:337] Iteration 13000, Testing net (#0)
I0824 03:19:01.897255 20733 solver.cpp:404]     Test net output #0: accuracy = 0.74416
I0824 03:19:05.136063 20733 solver.cpp:228] Iteration 13000, loss = 0.027865
I0824 03:19:05.136090 20733 solver.cpp:244]     Train net output #0: accuracy = 0.98
I0824 03:19:05.136099 20733 sgd_solver.cpp:106] Iteration 13000, lr = 0.0001
I0824 03:24:38.516713 20733 solver.cpp:228] Iteration 13100, loss = 0.00377444
I0824 03:24:38.516763 20733 solver.cpp:244]     Train net output #0: accuracy = 1
I0824 03:24:38.516774 20733 sgd_solver.cpp:106] Iteration 13100, lr = 0.0001
I0824 03:30:11.912493 20733 solver.cpp:228] Iteration 13200, loss = 0.0111467
I0824 03:30:11.912575 20733 solver.cpp:244]     Train net output #0: accuracy = 1
I0824 03:30:11.912586 20733 sgd_solver.cpp:106] Iteration 13200, lr = 0.0001
I0824 03:35:45.336742 20733 solver.cpp:228] Iteration 13300, loss = 0.0038278
I0824 03:35:45.336789 20733 solver.cpp:244]     Train net output #0: accuracy = 1
I0824 03:35:45.336800 20733 sgd_solver.cpp:106] Iteration 13300, lr = 0.0001
I0824 03:41:18.758795 20733 solver.cpp:228] Iteration 13400, loss = 0.0210397
I0824 03:41:18.758854 20733 solver.cpp:244]     Train net output #0: accuracy = 1
I0824 03:41:18.758867 20733 sgd_solver.cpp:106] Iteration 13400, lr = 0.0001
I0824 03:46:52.214905 20733 solver.cpp:228] Iteration 13500, loss = 0.0151896
I0824 03:46:52.214968 20733 solver.cpp:244]     Train net output #0: accuracy = 1
I0824 03:46:52.214980 20733 sgd_solver.cpp:106] Iteration 13500, lr = 0.0001
I0824 03:52:25.659204 20733 solver.cpp:228] Iteration 13600, loss = 0.0205356
I0824 03:52:25.659271 20733 solver.cpp:244]     Train net output #0: accuracy = 1
I0824 03:52:25.659282 20733 sgd_solver.cpp:106] Iteration 13600, lr = 0.0001
I0824 03:57:59.107264 20733 solver.cpp:228] Iteration 13700, loss = 0.00745478
I0824 03:57:59.107336 20733 solver.cpp:244]     Train net output #0: accuracy = 1
I0824 03:57:59.107347 20733 sgd_solver.cpp:106] Iteration 13700, lr = 0.0001
I0824 04:03:32.549942 20733 solver.cpp:228] Iteration 13800, loss = 0.0148276
I0824 04:03:32.550004 20733 solver.cpp:244]     Train net output #0: accuracy = 1
I0824 04:03:32.550017 20733 sgd_solver.cpp:106] Iteration 13800, lr = 0.0001
I0824 04:09:05.993520 20733 solver.cpp:228] Iteration 13900, loss = 0.0135665
I0824 04:09:05.993587 20733 solver.cpp:244]     Train net output #0: accuracy = 1
I0824 04:09:05.993598 20733 sgd_solver.cpp:106] Iteration 13900, lr = 0.0001
I0824 04:14:36.187173 20733 solver.cpp:337] Iteration 14000, Testing net (#0)
I0824 04:18:33.828074 20733 solver.cpp:404]     Test net output #0: accuracy = 0.73776
I0824 04:18:37.066751 20733 solver.cpp:228] Iteration 14000, loss = 0.00255484
I0824 04:18:37.066778 20733 solver.cpp:244]     Train net output #0: accuracy = 1
I0824 04:18:37.066787 20733 sgd_solver.cpp:106] Iteration 14000, lr = 0.0001
I0824 04:24:10.526597 20733 solver.cpp:228] Iteration 14100, loss = 0.0258557
I0824 04:24:10.526691 20733 solver.cpp:244]     Train net output #0: accuracy = 1
I0824 04:24:10.526703 20733 sgd_solver.cpp:106] Iteration 14100, lr = 0.0001
I0824 04:29:43.994369 20733 solver.cpp:228] Iteration 14200, loss = 0.00362593
I0824 04:29:43.994434 20733 solver.cpp:244]     Train net output #0: accuracy = 1
I0824 04:29:43.994446 20733 sgd_solver.cpp:106] Iteration 14200, lr = 0.0001
I0824 04:35:17.459602 20733 solver.cpp:228] Iteration 14300, loss = 0.00562845
I0824 04:35:17.459671 20733 solver.cpp:244]     Train net output #0: accuracy = 1
I0824 04:35:17.459681 20733 sgd_solver.cpp:106] Iteration 14300, lr = 0.0001
I0824 04:40:50.910107 20733 solver.cpp:228] Iteration 14400, loss = 0.00721142
I0824 04:40:50.910176 20733 solver.cpp:244]     Train net output #0: accuracy = 1
I0824 04:40:50.910187 20733 sgd_solver.cpp:106] Iteration 14400, lr = 0.0001
I0824 04:46:24.368438 20733 solver.cpp:228] Iteration 14500, loss = 0.00463457
I0824 04:46:24.368515 20733 solver.cpp:244]     Train net output #0: accuracy = 1
I0824 04:46:24.368527 20733 sgd_solver.cpp:106] Iteration 14500, lr = 0.0001
I0824 04:51:57.848723 20733 solver.cpp:228] Iteration 14600, loss = 0.00720927
I0824 04:51:57.848788 20733 solver.cpp:244]     Train net output #0: accuracy = 1
I0824 04:51:57.848799 20733 sgd_solver.cpp:106] Iteration 14600, lr = 0.0001
I0824 04:57:31.307024 20733 solver.cpp:228] Iteration 14700, loss = 0.00450816
I0824 04:57:31.307099 20733 solver.cpp:244]     Train net output #0: accuracy = 1
I0824 04:57:31.307111 20733 sgd_solver.cpp:106] Iteration 14700, lr = 0.0001
I0824 05:03:04.754007 20733 solver.cpp:228] Iteration 14800, loss = 0.00240469
I0824 05:03:04.754079 20733 solver.cpp:244]     Train net output #0: accuracy = 1
I0824 05:03:04.754091 20733 sgd_solver.cpp:106] Iteration 14800, lr = 0.0001
I0824 05:08:38.212864 20733 solver.cpp:228] Iteration 14900, loss = 0.0026049
I0824 05:08:38.212929 20733 solver.cpp:244]     Train net output #0: accuracy = 1
I0824 05:08:38.212940 20733 sgd_solver.cpp:106] Iteration 14900, lr = 0.0001
I0824 05:14:08.405146 20733 solver.cpp:454] Snapshotting to binary proto file model/mn_iter_15000.caffemodel
I0824 05:14:08.428032 20733 sgd_solver.cpp:273] Snapshotting solver state to binary proto file model/mn_iter_15000.solverstate
I0824 05:14:08.477849 20733 solver.cpp:337] Iteration 15000, Testing net (#0)
I0824 05:18:06.137303 20733 solver.cpp:404]     Test net output #0: accuracy = 0.73392
I0824 05:18:09.376775 20733 solver.cpp:228] Iteration 15000, loss = 0.00353985
I0824 05:18:09.376801 20733 solver.cpp:244]     Train net output #0: accuracy = 1
I0824 05:18:09.376807 20733 sgd_solver.cpp:106] Iteration 15000, lr = 0.0001
I0824 05:23:42.802220 20733 solver.cpp:228] Iteration 15100, loss = 0.00969335
I0824 05:23:42.802289 20733 solver.cpp:244]     Train net output #0: accuracy = 1
I0824 05:23:42.802297 20733 sgd_solver.cpp:106] Iteration 15100, lr = 0.0001
I0824 05:29:16.234833 20733 solver.cpp:228] Iteration 15200, loss = 0.00444528
I0824 05:29:16.234905 20733 solver.cpp:244]     Train net output #0: accuracy = 1
I0824 05:29:16.234915 20733 sgd_solver.cpp:106] Iteration 15200, lr = 0.0001
I0824 05:34:49.638954 20733 solver.cpp:228] Iteration 15300, loss = 0.00409799
I0824 05:34:49.639019 20733 solver.cpp:244]     Train net output #0: accuracy = 1
I0824 05:34:49.639029 20733 sgd_solver.cpp:106] Iteration 15300, lr = 0.0001
I0824 05:40:23.046322 20733 solver.cpp:228] Iteration 15400, loss = 0.00416693
I0824 05:40:23.046393 20733 solver.cpp:244]     Train net output #0: accuracy = 1
I0824 05:40:23.046401 20733 sgd_solver.cpp:106] Iteration 15400, lr = 0.0001
I0824 05:45:56.483016 20733 solver.cpp:228] Iteration 15500, loss = 0.00707729
I0824 05:45:56.483079 20733 solver.cpp:244]     Train net output #0: accuracy = 1
I0824 05:45:56.483088 20733 sgd_solver.cpp:106] Iteration 15500, lr = 0.0001
I0824 05:51:29.909155 20733 solver.cpp:228] Iteration 15600, loss = 0.00249697
I0824 05:51:29.909222 20733 solver.cpp:244]     Train net output #0: accuracy = 1
I0824 05:51:29.909231 20733 sgd_solver.cpp:106] Iteration 15600, lr = 0.0001
I0824 05:57:03.334136 20733 solver.cpp:228] Iteration 15700, loss = 0.0022852
I0824 05:57:03.334220 20733 solver.cpp:244]     Train net output #0: accuracy = 1
I0824 05:57:03.334230 20733 sgd_solver.cpp:106] Iteration 15700, lr = 0.0001
I0824 06:02:36.773254 20733 solver.cpp:228] Iteration 15800, loss = 0.0078469
I0824 06:02:36.773325 20733 solver.cpp:244]     Train net output #0: accuracy = 1
I0824 06:02:36.773334 20733 sgd_solver.cpp:106] Iteration 15800, lr = 0.0001
I0824 06:08:10.208876 20733 solver.cpp:228] Iteration 15900, loss = 0.00285171
I0824 06:08:10.208945 20733 solver.cpp:244]     Train net output #0: accuracy = 1
I0824 06:08:10.208952 20733 sgd_solver.cpp:106] Iteration 15900, lr = 0.0001
I0824 06:13:40.403005 20733 solver.cpp:337] Iteration 16000, Testing net (#0)
I0824 06:17:38.049366 20733 solver.cpp:404]     Test net output #0: accuracy = 0.7392
I0824 06:17:41.289000 20733 solver.cpp:228] Iteration 16000, loss = 0.0119946
I0824 06:17:41.289024 20733 solver.cpp:244]     Train net output #0: accuracy = 1
I0824 06:17:41.289032 20733 sgd_solver.cpp:106] Iteration 16000, lr = 0.0001
I0824 06:23:14.714457 20733 solver.cpp:228] Iteration 16100, loss = 0.00653383
I0824 06:23:14.714524 20733 solver.cpp:244]     Train net output #0: accuracy = 1
I0824 06:23:14.714534 20733 sgd_solver.cpp:106] Iteration 16100, lr = 0.0001
I0824 06:28:48.132686 20733 solver.cpp:228] Iteration 16200, loss = 0.00442469
I0824 06:28:48.132748 20733 solver.cpp:244]     Train net output #0: accuracy = 1
I0824 06:28:48.132756 20733 sgd_solver.cpp:106] Iteration 16200, lr = 0.0001
I0824 06:34:21.571902 20733 solver.cpp:228] Iteration 16300, loss = 0.0162045
I0824 06:34:21.571974 20733 solver.cpp:244]     Train net output #0: accuracy = 1
I0824 06:34:21.571983 20733 sgd_solver.cpp:106] Iteration 16300, lr = 0.0001
I0824 06:39:55.010108 20733 solver.cpp:228] Iteration 16400, loss = 0.00269396
I0824 06:39:55.010171 20733 solver.cpp:244]     Train net output #0: accuracy = 1
I0824 06:39:55.010180 20733 sgd_solver.cpp:106] Iteration 16400, lr = 0.0001
I0824 06:45:28.451859 20733 solver.cpp:228] Iteration 16500, loss = 0.0112524
I0824 06:45:28.451927 20733 solver.cpp:244]     Train net output #0: accuracy = 1
I0824 06:45:28.451936 20733 sgd_solver.cpp:106] Iteration 16500, lr = 0.0001
I0824 06:51:01.885831 20733 solver.cpp:228] Iteration 16600, loss = 0.0164954
I0824 06:51:01.885890 20733 solver.cpp:244]     Train net output #0: accuracy = 1
I0824 06:51:01.885900 20733 sgd_solver.cpp:106] Iteration 16600, lr = 0.0001
I0824 06:56:35.326972 20733 solver.cpp:228] Iteration 16700, loss = 0.0101875
I0824 06:56:35.327038 20733 solver.cpp:244]     Train net output #0: accuracy = 1
I0824 06:56:35.327045 20733 sgd_solver.cpp:106] Iteration 16700, lr = 0.0001
I0824 07:02:08.753078 20733 solver.cpp:228] Iteration 16800, loss = 0.00441478
I0824 07:02:08.753149 20733 solver.cpp:244]     Train net output #0: accuracy = 1
I0824 07:02:08.753157 20733 sgd_solver.cpp:106] Iteration 16800, lr = 0.0001
I0824 07:07:42.173033 20733 solver.cpp:228] Iteration 16900, loss = 0.00639497
I0824 07:07:42.173104 20733 solver.cpp:244]     Train net output #0: accuracy = 1
I0824 07:07:42.173111 20733 sgd_solver.cpp:106] Iteration 16900, lr = 0.0001
I0824 07:13:12.368072 20733 solver.cpp:337] Iteration 17000, Testing net (#0)
I0824 07:17:10.005475 20733 solver.cpp:404]     Test net output #0: accuracy = 0.739439
I0824 07:17:13.246109 20733 solver.cpp:228] Iteration 17000, loss = 0.00400463
I0824 07:17:13.246134 20733 solver.cpp:244]     Train net output #0: accuracy = 1
I0824 07:17:13.246141 20733 sgd_solver.cpp:106] Iteration 17000, lr = 0.0001
I0824 07:22:46.701234 20733 solver.cpp:228] Iteration 17100, loss = 0.00145694
I0824 07:22:46.701295 20733 solver.cpp:244]     Train net output #0: accuracy = 1
I0824 07:22:46.701303 20733 sgd_solver.cpp:106] Iteration 17100, lr = 0.0001
I0824 07:28:20.139544 20733 solver.cpp:228] Iteration 17200, loss = 0.00584804
I0824 07:28:20.139633 20733 solver.cpp:244]     Train net output #0: accuracy = 1
I0824 07:28:20.139643 20733 sgd_solver.cpp:106] Iteration 17200, lr = 0.0001
I0824 07:33:53.566093 20733 solver.cpp:228] Iteration 17300, loss = 0.00404291
I0824 07:33:53.566162 20733 solver.cpp:244]     Train net output #0: accuracy = 1
I0824 07:33:53.566171 20733 sgd_solver.cpp:106] Iteration 17300, lr = 0.0001
I0824 07:39:27.011284 20733 solver.cpp:228] Iteration 17400, loss = 0.00542697
I0824 07:39:27.011349 20733 solver.cpp:244]     Train net output #0: accuracy = 1
I0824 07:39:27.011358 20733 sgd_solver.cpp:106] Iteration 17400, lr = 0.0001
I0824 07:45:00.417105 20733 solver.cpp:228] Iteration 17500, loss = 0.00943887
I0824 07:45:00.417171 20733 solver.cpp:244]     Train net output #0: accuracy = 1
I0824 07:45:00.417179 20733 sgd_solver.cpp:106] Iteration 17500, lr = 0.0001
I0824 07:50:33.821996 20733 solver.cpp:228] Iteration 17600, loss = 0.00248035
I0824 07:50:33.823104 20733 solver.cpp:244]     Train net output #0: accuracy = 1
I0824 07:50:33.823113 20733 sgd_solver.cpp:106] Iteration 17600, lr = 0.0001
I0824 07:56:07.260054 20733 solver.cpp:228] Iteration 17700, loss = 0.00483989
I0824 07:56:07.260118 20733 solver.cpp:244]     Train net output #0: accuracy = 1
I0824 07:56:07.260126 20733 sgd_solver.cpp:106] Iteration 17700, lr = 0.0001
I0824 08:01:40.703928 20733 solver.cpp:228] Iteration 17800, loss = 0.00259738
I0824 08:01:40.703991 20733 solver.cpp:244]     Train net output #0: accuracy = 1
I0824 08:01:40.704000 20733 sgd_solver.cpp:106] Iteration 17800, lr = 0.0001
I0824 08:07:14.135208 20733 solver.cpp:228] Iteration 17900, loss = 0.00615808
I0824 08:07:14.135280 20733 solver.cpp:244]     Train net output #0: accuracy = 1
I0824 08:07:14.135288 20733 sgd_solver.cpp:106] Iteration 17900, lr = 0.0001
I0824 08:12:44.332041 20733 solver.cpp:337] Iteration 18000, Testing net (#0)
I0824 08:16:41.985301 20733 solver.cpp:404]     Test net output #0: accuracy = 0.73784
I0824 08:16:45.224488 20733 solver.cpp:228] Iteration 18000, loss = 0.00466778
I0824 08:16:45.224519 20733 solver.cpp:244]     Train net output #0: accuracy = 1
I0824 08:16:45.224526 20733 sgd_solver.cpp:106] Iteration 18000, lr = 0.0001
I0824 08:22:18.639804 20733 solver.cpp:228] Iteration 18100, loss = 0.00430712
I0824 08:22:18.639869 20733 solver.cpp:244]     Train net output #0: accuracy = 1
I0824 08:22:18.639878 20733 sgd_solver.cpp:106] Iteration 18100, lr = 0.0001
I0824 08:27:52.038738 20733 solver.cpp:228] Iteration 18200, loss = 0.00443877
I0824 08:27:52.038801 20733 solver.cpp:244]     Train net output #0: accuracy = 1
I0824 08:27:52.038810 20733 sgd_solver.cpp:106] Iteration 18200, lr = 0.0001
I0824 08:33:25.449913 20733 solver.cpp:228] Iteration 18300, loss = 0.00579607
I0824 08:33:25.449983 20733 solver.cpp:244]     Train net output #0: accuracy = 1
I0824 08:33:25.449992 20733 sgd_solver.cpp:106] Iteration 18300, lr = 0.0001
I0824 08:38:58.862314 20733 solver.cpp:228] Iteration 18400, loss = 0.00265165
I0824 08:38:58.862375 20733 solver.cpp:244]     Train net output #0: accuracy = 1
I0824 08:38:58.862385 20733 sgd_solver.cpp:106] Iteration 18400, lr = 0.0001
I0824 08:44:32.279666 20733 solver.cpp:228] Iteration 18500, loss = 0.00282391
I0824 08:44:32.279732 20733 solver.cpp:244]     Train net output #0: accuracy = 1
I0824 08:44:32.279742 20733 sgd_solver.cpp:106] Iteration 18500, lr = 0.0001
I0824 08:50:05.686659 20733 solver.cpp:228] Iteration 18600, loss = 0.00639432
I0824 08:50:05.686722 20733 solver.cpp:244]     Train net output #0: accuracy = 1
I0824 08:50:05.686730 20733 sgd_solver.cpp:106] Iteration 18600, lr = 0.0001
I0824 08:55:39.095614 20733 solver.cpp:228] Iteration 18700, loss = 0.00180618
I0824 08:55:39.095685 20733 solver.cpp:244]     Train net output #0: accuracy = 1
I0824 08:55:39.095692 20733 sgd_solver.cpp:106] Iteration 18700, lr = 0.0001
I0824 09:01:12.502322 20733 solver.cpp:228] Iteration 18800, loss = 0.00222328
I0824 09:01:12.502389 20733 solver.cpp:244]     Train net output #0: accuracy = 1
I0824 09:01:12.502398 20733 sgd_solver.cpp:106] Iteration 18800, lr = 0.0001
I0824 09:06:45.907243 20733 solver.cpp:228] Iteration 18900, loss = 0.00561646
I0824 09:06:45.907344 20733 solver.cpp:244]     Train net output #0: accuracy = 1
I0824 09:06:45.907353 20733 sgd_solver.cpp:106] Iteration 18900, lr = 0.0001
I0824 09:12:16.115901 20733 solver.cpp:337] Iteration 19000, Testing net (#0)
I0824 09:16:13.758314 20733 solver.cpp:404]     Test net output #0: accuracy = 0.73512
I0824 09:16:16.997495 20733 solver.cpp:228] Iteration 19000, loss = 0.00421527
I0824 09:16:16.997520 20733 solver.cpp:244]     Train net output #0: accuracy = 1
I0824 09:16:16.997527 20733 sgd_solver.cpp:106] Iteration 19000, lr = 0.0001
I0824 09:21:50.429787 20733 solver.cpp:228] Iteration 19100, loss = 0.00136175
I0824 09:21:50.429848 20733 solver.cpp:244]     Train net output #0: accuracy = 1
I0824 09:21:50.429857 20733 sgd_solver.cpp:106] Iteration 19100, lr = 0.0001
I0824 09:27:23.834605 20733 solver.cpp:228] Iteration 19200, loss = 0.00284899
I0824 09:27:23.834663 20733 solver.cpp:244]     Train net output #0: accuracy = 1
I0824 09:27:23.834672 20733 sgd_solver.cpp:106] Iteration 19200, lr = 0.0001
I0824 09:32:57.242360 20733 solver.cpp:228] Iteration 19300, loss = 0.00394324
I0824 09:32:57.242430 20733 solver.cpp:244]     Train net output #0: accuracy = 1
I0824 09:32:57.242439 20733 sgd_solver.cpp:106] Iteration 19300, lr = 0.0001
I0824 09:38:30.656070 20733 solver.cpp:228] Iteration 19400, loss = 0.00617269
I0824 09:38:30.656133 20733 solver.cpp:244]     Train net output #0: accuracy = 1
I0824 09:38:30.656141 20733 sgd_solver.cpp:106] Iteration 19400, lr = 0.0001
I0824 09:44:04.089190 20733 solver.cpp:228] Iteration 19500, loss = 0.0232437
I0824 09:44:04.089251 20733 solver.cpp:244]     Train net output #0: accuracy = 0.98
I0824 09:44:04.089259 20733 sgd_solver.cpp:106] Iteration 19500, lr = 0.0001
I0824 09:49:37.518158 20733 solver.cpp:228] Iteration 19600, loss = 0.0023446
I0824 09:49:37.518229 20733 solver.cpp:244]     Train net output #0: accuracy = 1
I0824 09:49:37.518239 20733 sgd_solver.cpp:106] Iteration 19600, lr = 0.0001
I0824 09:55:10.944617 20733 solver.cpp:228] Iteration 19700, loss = 0.00240902
I0824 09:55:10.944682 20733 solver.cpp:244]     Train net output #0: accuracy = 1
I0824 09:55:10.944691 20733 sgd_solver.cpp:106] Iteration 19700, lr = 0.0001
I0824 10:00:44.373559 20733 solver.cpp:228] Iteration 19800, loss = 0.0139186
I0824 10:00:44.373621 20733 solver.cpp:244]     Train net output #0: accuracy = 1
I0824 10:00:44.373630 20733 sgd_solver.cpp:106] Iteration 19800, lr = 0.0001
I0824 10:06:17.766679 20733 solver.cpp:228] Iteration 19900, loss = 0.00726947
I0824 10:06:17.766752 20733 solver.cpp:244]     Train net output #0: accuracy = 1
I0824 10:06:17.766760 20733 sgd_solver.cpp:106] Iteration 19900, lr = 0.0001
I0824 10:11:47.937808 20733 solver.cpp:454] Snapshotting to binary proto file model/mn_iter_20000.caffemodel
I0824 10:11:47.958078 20733 sgd_solver.cpp:273] Snapshotting solver state to binary proto file model/mn_iter_20000.solverstate
I0824 10:11:47.964658 20733 solver.cpp:337] Iteration 20000, Testing net (#0)
I0824 10:15:45.609501 20733 solver.cpp:404]     Test net output #0: accuracy = 0.74104
I0824 10:15:48.848889 20733 solver.cpp:228] Iteration 20000, loss = 0.0142115
I0824 10:15:48.848915 20733 solver.cpp:244]     Train net output #0: accuracy = 1
I0824 10:15:48.848922 20733 sgd_solver.cpp:106] Iteration 20000, lr = 1e-05
I0824 10:21:22.280325 20733 solver.cpp:228] Iteration 20100, loss = 0.00944803
I0824 10:21:22.280407 20733 solver.cpp:244]     Train net output #0: accuracy = 1
I0824 10:21:22.280416 20733 sgd_solver.cpp:106] Iteration 20100, lr = 1e-05
I0824 10:26:55.680243 20733 solver.cpp:228] Iteration 20200, loss = 0.00185256
I0824 10:26:55.680301 20733 solver.cpp:244]     Train net output #0: accuracy = 1
I0824 10:26:55.680310 20733 sgd_solver.cpp:106] Iteration 20200, lr = 1e-05
I0824 10:32:29.063670 20733 solver.cpp:228] Iteration 20300, loss = 0.00302975
I0824 10:32:29.063736 20733 solver.cpp:244]     Train net output #0: accuracy = 1
I0824 10:32:29.063745 20733 sgd_solver.cpp:106] Iteration 20300, lr = 1e-05
I0824 10:38:02.436168 20733 solver.cpp:228] Iteration 20400, loss = 0.00430289
I0824 10:38:02.436245 20733 solver.cpp:244]     Train net output #0: accuracy = 1
I0824 10:38:02.436254 20733 sgd_solver.cpp:106] Iteration 20400, lr = 1e-05
I0824 10:43:35.836127 20733 solver.cpp:228] Iteration 20500, loss = 0.00299403
I0824 10:43:35.836197 20733 solver.cpp:244]     Train net output #0: accuracy = 1
I0824 10:43:35.836205 20733 sgd_solver.cpp:106] Iteration 20500, lr = 1e-05
I0824 10:49:09.224364 20733 solver.cpp:228] Iteration 20600, loss = 0.0146058
I0824 10:49:09.224427 20733 solver.cpp:244]     Train net output #0: accuracy = 1
I0824 10:49:09.224436 20733 sgd_solver.cpp:106] Iteration 20600, lr = 1e-05
I0824 10:54:42.643529 20733 solver.cpp:228] Iteration 20700, loss = 0.00369619
I0824 10:54:42.643597 20733 solver.cpp:244]     Train net output #0: accuracy = 1
I0824 10:54:42.643605 20733 sgd_solver.cpp:106] Iteration 20700, lr = 1e-05
I0824 11:00:16.053617 20733 solver.cpp:228] Iteration 20800, loss = 0.00115687
I0824 11:00:16.053676 20733 solver.cpp:244]     Train net output #0: accuracy = 1
I0824 11:00:16.053685 20733 sgd_solver.cpp:106] Iteration 20800, lr = 1e-05
I0824 11:05:49.474699 20733 solver.cpp:228] Iteration 20900, loss = 0.00468441
I0824 11:05:49.474753 20733 solver.cpp:244]     Train net output #0: accuracy = 1
I0824 11:05:49.474761 20733 sgd_solver.cpp:106] Iteration 20900, lr = 1e-05
I0824 11:11:19.652050 20733 solver.cpp:337] Iteration 21000, Testing net (#0)
I0824 11:15:17.314169 20733 solver.cpp:404]     Test net output #0: accuracy = 0.74088
I0824 11:15:20.553472 20733 solver.cpp:228] Iteration 21000, loss = 0.00294025
I0824 11:15:20.553498 20733 solver.cpp:244]     Train net output #0: accuracy = 1
I0824 11:15:20.553504 20733 sgd_solver.cpp:106] Iteration 21000, lr = 1e-05
I0824 11:20:53.988157 20733 solver.cpp:228] Iteration 21100, loss = 0.0050415
I0824 11:20:53.988221 20733 solver.cpp:244]     Train net output #0: accuracy = 1
I0824 11:20:53.988230 20733 sgd_solver.cpp:106] Iteration 21100, lr = 1e-05
I0824 11:26:27.414832 20733 solver.cpp:228] Iteration 21200, loss = 0.00285706
I0824 11:26:27.414901 20733 solver.cpp:244]     Train net output #0: accuracy = 1
I0824 11:26:27.414909 20733 sgd_solver.cpp:106] Iteration 21200, lr = 1e-05
I0824 11:32:00.837245 20733 solver.cpp:228] Iteration 21300, loss = 0.00354178
I0824 11:32:00.837312 20733 solver.cpp:244]     Train net output #0: accuracy = 1
I0824 11:32:00.837321 20733 sgd_solver.cpp:106] Iteration 21300, lr = 1e-05
I0824 11:37:34.280972 20733 solver.cpp:228] Iteration 21400, loss = 0.00278272
I0824 11:37:34.281033 20733 solver.cpp:244]     Train net output #0: accuracy = 1
I0824 11:37:34.281041 20733 sgd_solver.cpp:106] Iteration 21400, lr = 1e-05
I0824 11:43:08.075310 20733 solver.cpp:228] Iteration 21500, loss = 0.0053967
I0824 11:43:08.075374 20733 solver.cpp:244]     Train net output #0: accuracy = 1
I0824 11:43:08.075383 20733 sgd_solver.cpp:106] Iteration 21500, lr = 1e-05
I0824 11:48:41.551002 20733 solver.cpp:228] Iteration 21600, loss = 0.00170331
I0824 11:48:41.551070 20733 solver.cpp:244]     Train net output #0: accuracy = 1
I0824 11:48:41.551079 20733 sgd_solver.cpp:106] Iteration 21600, lr = 1e-05
I0824 11:54:15.074887 20733 solver.cpp:228] Iteration 21700, loss = 0.00378513
I0824 11:54:15.074951 20733 solver.cpp:244]     Train net output #0: accuracy = 1
I0824 11:54:15.074959 20733 sgd_solver.cpp:106] Iteration 21700, lr = 1e-05
I0824 11:59:55.442896 20733 solver.cpp:228] Iteration 21800, loss = 0.0087426
I0824 11:59:55.442970 20733 solver.cpp:244]     Train net output #0: accuracy = 1
I0824 11:59:55.442980 20733 sgd_solver.cpp:106] Iteration 21800, lr = 1e-05
I0824 12:05:43.403787 20733 solver.cpp:228] Iteration 21900, loss = 0.00738386
I0824 12:05:43.412581 20733 solver.cpp:244]     Train net output #0: accuracy = 1
I0824 12:05:43.412607 20733 sgd_solver.cpp:106] Iteration 21900, lr = 1e-05
I0824 12:11:17.910495 20733 solver.cpp:337] Iteration 22000, Testing net (#0)
I0824 12:15:22.215142 20733 solver.cpp:404]     Test net output #0: accuracy = 0.73912
I0824 12:15:25.472961 20733 solver.cpp:228] Iteration 22000, loss = 0.00941909
I0824 12:15:25.472993 20733 solver.cpp:244]     Train net output #0: accuracy = 1
I0824 12:15:25.473001 20733 sgd_solver.cpp:106] Iteration 22000, lr = 1e-05
I0824 12:21:03.321034 20733 solver.cpp:228] Iteration 22100, loss = 0.0024108
I0824 12:21:03.321105 20733 solver.cpp:244]     Train net output #0: accuracy = 1
I0824 12:21:03.321115 20733 sgd_solver.cpp:106] Iteration 22100, lr = 1e-05
I0824 12:26:44.062037 20733 solver.cpp:228] Iteration 22200, loss = 0.00179745
I0824 12:26:44.062160 20733 solver.cpp:244]     Train net output #0: accuracy = 1
I0824 12:26:44.062182 20733 sgd_solver.cpp:106] Iteration 22200, lr = 1e-05
I0824 12:32:21.943958 20733 solver.cpp:228] Iteration 22300, loss = 0.00639293
I0824 12:32:21.944052 20733 solver.cpp:244]     Train net output #0: accuracy = 1
I0824 12:32:21.944062 20733 sgd_solver.cpp:106] Iteration 22300, lr = 1e-05
I0824 12:38:00.300258 20733 solver.cpp:228] Iteration 22400, loss = 0.0108304
I0824 12:38:00.300874 20733 solver.cpp:244]     Train net output #0: accuracy = 1
I0824 12:38:00.300884 20733 sgd_solver.cpp:106] Iteration 22400, lr = 1e-05
I0824 12:43:43.418439 20733 solver.cpp:228] Iteration 22500, loss = 0.00304661
I0824 12:43:43.440601 20733 solver.cpp:244]     Train net output #0: accuracy = 1
I0824 12:43:43.440639 20733 sgd_solver.cpp:106] Iteration 22500, lr = 1e-05
I0824 12:49:20.490471 20733 solver.cpp:228] Iteration 22600, loss = 0.00296875
I0824 12:49:20.490550 20733 solver.cpp:244]     Train net output #0: accuracy = 1
I0824 12:49:20.490561 20733 sgd_solver.cpp:106] Iteration 22600, lr = 1e-05
I0824 12:54:57.656015 20733 solver.cpp:228] Iteration 22700, loss = 0.0032536
I0824 12:54:57.656101 20733 solver.cpp:244]     Train net output #0: accuracy = 1
I0824 12:54:57.656116 20733 sgd_solver.cpp:106] Iteration 22700, lr = 1e-05
I0824 13:00:38.484109 20733 solver.cpp:228] Iteration 22800, loss = 0.00356819
I0824 13:00:38.484207 20733 solver.cpp:244]     Train net output #0: accuracy = 1
I0824 13:00:38.484218 20733 sgd_solver.cpp:106] Iteration 22800, lr = 1e-05
I0824 13:06:19.075983 20733 solver.cpp:228] Iteration 22900, loss = 0.0066409
I0824 13:06:19.076069 20733 solver.cpp:244]     Train net output #0: accuracy = 1
I0824 13:06:19.076079 20733 sgd_solver.cpp:106] Iteration 22900, lr = 1e-05
I0824 13:11:52.936952 20733 solver.cpp:337] Iteration 23000, Testing net (#0)
I0824 13:15:53.859076 20733 solver.cpp:404]     Test net output #0: accuracy = 0.74176
I0824 13:15:57.217267 20733 solver.cpp:228] Iteration 23000, loss = 0.00233676
I0824 13:15:57.217314 20733 solver.cpp:244]     Train net output #0: accuracy = 1
I0824 13:15:57.217324 20733 sgd_solver.cpp:106] Iteration 23000, lr = 1e-05
I0824 13:21:36.826432 20733 solver.cpp:228] Iteration 23100, loss = 0.00430451
I0824 13:21:36.826515 20733 solver.cpp:244]     Train net output #0: accuracy = 1
I0824 13:21:36.826525 20733 sgd_solver.cpp:106] Iteration 23100, lr = 1e-05
I0824 13:27:18.543810 20733 solver.cpp:228] Iteration 23200, loss = 0.00153555
I0824 13:27:18.543895 20733 solver.cpp:244]     Train net output #0: accuracy = 1
I0824 13:27:18.543906 20733 sgd_solver.cpp:106] Iteration 23200, lr = 1e-05
I0824 13:32:57.512780 20733 solver.cpp:228] Iteration 23300, loss = 0.00201607
I0824 13:32:57.512857 20733 solver.cpp:244]     Train net output #0: accuracy = 1
I0824 13:32:57.512867 20733 sgd_solver.cpp:106] Iteration 23300, lr = 1e-05
I0824 13:38:37.532073 20733 solver.cpp:228] Iteration 23400, loss = 0.00179221
I0824 13:38:37.532158 20733 solver.cpp:244]     Train net output #0: accuracy = 1
I0824 13:38:37.532168 20733 sgd_solver.cpp:106] Iteration 23400, lr = 1e-05
I0824 13:44:22.174036 20733 solver.cpp:228] Iteration 23500, loss = 0.00283873
I0824 13:44:22.174126 20733 solver.cpp:244]     Train net output #0: accuracy = 1
I0824 13:44:22.174137 20733 sgd_solver.cpp:106] Iteration 23500, lr = 1e-05
I0824 13:50:02.389389 20733 solver.cpp:228] Iteration 23600, loss = 0.00348424
I0824 13:50:02.389536 20733 solver.cpp:244]     Train net output #0: accuracy = 1
I0824 13:50:02.389547 20733 sgd_solver.cpp:106] Iteration 23600, lr = 1e-05
I0824 13:55:43.368281 20733 solver.cpp:228] Iteration 23700, loss = 0.00215047
I0824 13:55:43.368374 20733 solver.cpp:244]     Train net output #0: accuracy = 1
I0824 13:55:43.368386 20733 sgd_solver.cpp:106] Iteration 23700, lr = 1e-05
I0824 14:01:22.845729 20733 solver.cpp:228] Iteration 23800, loss = 0.00499907
I0824 14:01:22.847126 20733 solver.cpp:244]     Train net output #0: accuracy = 1
I0824 14:01:22.847151 20733 sgd_solver.cpp:106] Iteration 23800, lr = 1e-05
I0824 14:07:05.739334 20733 solver.cpp:228] Iteration 23900, loss = 0.0137729
I0824 14:07:05.739480 20733 solver.cpp:244]     Train net output #0: accuracy = 1
I0824 14:07:05.739517 20733 sgd_solver.cpp:106] Iteration 23900, lr = 1e-05
I0824 14:12:52.406384 20733 solver.cpp:337] Iteration 24000, Testing net (#0)
I0824 14:17:06.570014 20733 solver.cpp:404]     Test net output #0: accuracy = 0.74312
I0824 14:17:09.845543 20733 solver.cpp:228] Iteration 24000, loss = 0.00641805
I0824 14:17:09.845585 20733 solver.cpp:244]     Train net output #0: accuracy = 1
I0824 14:17:09.845597 20733 sgd_solver.cpp:106] Iteration 24000, lr = 1e-05
I0824 14:22:59.693950 20733 solver.cpp:228] Iteration 24100, loss = 0.0101739
I0824 14:22:59.694036 20733 solver.cpp:244]     Train net output #0: accuracy = 1
I0824 14:22:59.694046 20733 sgd_solver.cpp:106] Iteration 24100, lr = 1e-05
I0824 14:28:33.977131 20733 solver.cpp:228] Iteration 24200, loss = 0.00199138
I0824 14:28:33.977196 20733 solver.cpp:244]     Train net output #0: accuracy = 1
I0824 14:28:33.977205 20733 sgd_solver.cpp:106] Iteration 24200, lr = 1e-05
I0824 14:34:08.509903 20733 solver.cpp:228] Iteration 24300, loss = 0.00198156
I0824 14:34:08.509973 20733 solver.cpp:244]     Train net output #0: accuracy = 1
I0824 14:34:08.509984 20733 sgd_solver.cpp:106] Iteration 24300, lr = 1e-05
I0824 14:39:42.612679 20733 solver.cpp:228] Iteration 24400, loss = 0.00194263
I0824 14:39:42.612746 20733 solver.cpp:244]     Train net output #0: accuracy = 1
I0824 14:39:42.612756 20733 sgd_solver.cpp:106] Iteration 24400, lr = 1e-05
I0824 14:45:17.243208 20733 solver.cpp:228] Iteration 24500, loss = 0.00702685
I0824 14:45:17.243290 20733 solver.cpp:244]     Train net output #0: accuracy = 1
I0824 14:45:17.243300 20733 sgd_solver.cpp:106] Iteration 24500, lr = 1e-05
I0824 14:50:52.879464 20733 solver.cpp:228] Iteration 24600, loss = 0.0116543
I0824 14:50:52.888556 20733 solver.cpp:244]     Train net output #0: accuracy = 1
I0824 14:50:52.888568 20733 sgd_solver.cpp:106] Iteration 24600, lr = 1e-05
I0824 14:56:31.987751 20733 solver.cpp:228] Iteration 24700, loss = 0.0044044
I0824 14:56:32.024585 20733 solver.cpp:244]     Train net output #0: accuracy = 1
I0824 14:56:32.024612 20733 sgd_solver.cpp:106] Iteration 24700, lr = 1e-05
I0824 15:02:09.018620 20733 solver.cpp:228] Iteration 24800, loss = 0.00374965
I0824 15:02:09.023906 20733 solver.cpp:244]     Train net output #0: accuracy = 1
I0824 15:02:09.023916 20733 sgd_solver.cpp:106] Iteration 24800, lr = 1e-05
I0824 15:07:45.911541 20733 solver.cpp:228] Iteration 24900, loss = 0.0011179
I0824 15:07:45.911612 20733 solver.cpp:244]     Train net output #0: accuracy = 1
I0824 15:07:45.911623 20733 sgd_solver.cpp:106] Iteration 24900, lr = 1e-05
I0824 15:13:17.929458 20733 solver.cpp:454] Snapshotting to binary proto file model/mn_iter_25000.caffemodel
I0824 15:13:17.950518 20733 sgd_solver.cpp:273] Snapshotting solver state to binary proto file model/mn_iter_25000.solverstate
I0824 15:13:17.956980 20733 solver.cpp:337] Iteration 25000, Testing net (#0)
I0824 15:17:16.884143 20733 solver.cpp:404]     Test net output #0: accuracy = 0.74032
I0824 15:17:20.217725 20733 solver.cpp:228] Iteration 25000, loss = 0.00368954
I0824 15:17:20.217761 20733 solver.cpp:244]     Train net output #0: accuracy = 1
I0824 15:17:20.217772 20733 sgd_solver.cpp:106] Iteration 25000, lr = 1e-05
I0824 15:22:55.804580 20733 solver.cpp:228] Iteration 25100, loss = 0.0041031
I0824 15:22:55.827206 20733 solver.cpp:244]     Train net output #0: accuracy = 1
I0824 15:22:55.827244 20733 sgd_solver.cpp:106] Iteration 25100, lr = 1e-05
I0824 15:28:31.699218 20733 solver.cpp:228] Iteration 25200, loss = 0.00634656
I0824 15:28:31.699307 20733 solver.cpp:244]     Train net output #0: accuracy = 1
I0824 15:28:31.699319 20733 sgd_solver.cpp:106] Iteration 25200, lr = 1e-05
I0824 15:34:07.413081 20733 solver.cpp:228] Iteration 25300, loss = 0.0041801
I0824 15:34:07.413167 20733 solver.cpp:244]     Train net output #0: accuracy = 1
I0824 15:34:07.413182 20733 sgd_solver.cpp:106] Iteration 25300, lr = 1e-05
I0824 15:39:43.765594 20733 solver.cpp:228] Iteration 25400, loss = 0.00494078
I0824 15:39:43.765693 20733 solver.cpp:244]     Train net output #0: accuracy = 1
I0824 15:39:43.765707 20733 sgd_solver.cpp:106] Iteration 25400, lr = 1e-05
I0824 15:45:19.037753 20733 solver.cpp:228] Iteration 25500, loss = 0.00255567
I0824 15:45:19.037832 20733 solver.cpp:244]     Train net output #0: accuracy = 1
I0824 15:45:19.037842 20733 sgd_solver.cpp:106] Iteration 25500, lr = 1e-05
I0824 15:50:54.408102 20733 solver.cpp:228] Iteration 25600, loss = 0.00733993
I0824 15:50:54.408226 20733 solver.cpp:244]     Train net output #0: accuracy = 1
I0824 15:50:54.408239 20733 sgd_solver.cpp:106] Iteration 25600, lr = 1e-05
I0824 15:56:29.982074 20733 solver.cpp:228] Iteration 25700, loss = 0.00592536
I0824 15:56:30.006947 20733 solver.cpp:244]     Train net output #0: accuracy = 1
I0824 15:56:30.006978 20733 sgd_solver.cpp:106] Iteration 25700, lr = 1e-05
I0824 16:02:05.661949 20733 solver.cpp:228] Iteration 25800, loss = 0.00532143
I0824 16:02:05.672561 20733 solver.cpp:244]     Train net output #0: accuracy = 1
I0824 16:02:05.672585 20733 sgd_solver.cpp:106] Iteration 25800, lr = 1e-05
I0824 16:07:42.570273 20733 solver.cpp:228] Iteration 25900, loss = 0.00218047
I0824 16:07:42.580559 20733 solver.cpp:244]     Train net output #0: accuracy = 1
I0824 16:07:42.580571 20733 sgd_solver.cpp:106] Iteration 25900, lr = 1e-05
I0824 16:13:16.005409 20733 solver.cpp:337] Iteration 26000, Testing net (#0)
I0824 16:17:15.035131 20733 solver.cpp:404]     Test net output #0: accuracy = 0.74152
I0824 16:17:18.302899 20733 solver.cpp:228] Iteration 26000, loss = 0.00657057
I0824 16:17:18.302938 20733 solver.cpp:244]     Train net output #0: accuracy = 1
I0824 16:17:18.302950 20733 sgd_solver.cpp:106] Iteration 26000, lr = 1e-05
I0824 16:22:56.477733 20733 solver.cpp:228] Iteration 26100, loss = 0.00729732
I0824 16:22:56.484313 20733 solver.cpp:244]     Train net output #0: accuracy = 1
I0824 16:22:56.484344 20733 sgd_solver.cpp:106] Iteration 26100, lr = 1e-05
I0824 16:28:32.553362 20733 solver.cpp:228] Iteration 26200, loss = 0.00529631
I0824 16:28:32.553439 20733 solver.cpp:244]     Train net output #0: accuracy = 1
I0824 16:28:32.553452 20733 sgd_solver.cpp:106] Iteration 26200, lr = 1e-05
I0824 16:34:08.133333 20733 solver.cpp:228] Iteration 26300, loss = 0.00568682
I0824 16:34:08.133414 20733 solver.cpp:244]     Train net output #0: accuracy = 1
I0824 16:34:08.133424 20733 sgd_solver.cpp:106] Iteration 26300, lr = 1e-05
I0824 16:39:46.901305 20733 solver.cpp:228] Iteration 26400, loss = 0.00524116
I0824 16:39:46.901383 20733 solver.cpp:244]     Train net output #0: accuracy = 1
I0824 16:39:46.901394 20733 sgd_solver.cpp:106] Iteration 26400, lr = 1e-05
I0824 16:45:23.242446 20733 solver.cpp:228] Iteration 26500, loss = 0.00333075
I0824 16:45:23.242532 20733 solver.cpp:244]     Train net output #0: accuracy = 1
I0824 16:45:23.242540 20733 sgd_solver.cpp:106] Iteration 26500, lr = 1e-05
I0824 16:50:59.990885 20733 solver.cpp:228] Iteration 26600, loss = 0.00695361
I0824 16:50:59.990962 20733 solver.cpp:244]     Train net output #0: accuracy = 1
I0824 16:50:59.990970 20733 sgd_solver.cpp:106] Iteration 26600, lr = 1e-05
I0824 16:56:39.723160 20733 solver.cpp:228] Iteration 26700, loss = 0.00428221
I0824 16:56:39.723286 20733 solver.cpp:244]     Train net output #0: accuracy = 1
I0824 16:56:39.723299 20733 sgd_solver.cpp:106] Iteration 26700, lr = 1e-05
I0824 17:02:24.858464 20733 solver.cpp:228] Iteration 26800, loss = 0.00433796
I0824 17:02:24.858578 20733 solver.cpp:244]     Train net output #0: accuracy = 1
I0824 17:02:24.858592 20733 sgd_solver.cpp:106] Iteration 26800, lr = 1e-05
I0824 17:08:14.268554 20733 solver.cpp:228] Iteration 26900, loss = 0.00414284
I0824 17:08:14.268637 20733 solver.cpp:244]     Train net output #0: accuracy = 1
I0824 17:08:14.268647 20733 sgd_solver.cpp:106] Iteration 26900, lr = 1e-05
I0824 17:13:52.647703 20733 solver.cpp:337] Iteration 27000, Testing net (#0)
I0824 17:17:56.184587 20733 solver.cpp:404]     Test net output #0: accuracy = 0.73952
I0824 17:17:59.517321 20733 solver.cpp:228] Iteration 27000, loss = 0.00646801
I0824 17:17:59.517351 20733 solver.cpp:244]     Train net output #0: accuracy = 1
I0824 17:17:59.517357 20733 sgd_solver.cpp:106] Iteration 27000, lr = 1e-05
I0824 17:23:43.779479 20733 solver.cpp:228] Iteration 27100, loss = 0.00318414
I0824 17:23:43.779548 20733 solver.cpp:244]     Train net output #0: accuracy = 1
I0824 17:23:43.779557 20733 sgd_solver.cpp:106] Iteration 27100, lr = 1e-05
I0824 17:29:32.034838 20733 solver.cpp:228] Iteration 27200, loss = 0.0112291
I0824 17:29:32.044600 20733 solver.cpp:244]     Train net output #0: accuracy = 1
I0824 17:29:32.044630 20733 sgd_solver.cpp:106] Iteration 27200, lr = 1e-05
I0824 17:35:17.717129 20733 solver.cpp:228] Iteration 27300, loss = 0.00339172
I0824 17:35:17.717232 20733 solver.cpp:244]     Train net output #0: accuracy = 1
I0824 17:35:17.717242 20733 sgd_solver.cpp:106] Iteration 27300, lr = 1e-05
I0824 17:41:03.242322 20733 solver.cpp:228] Iteration 27400, loss = 0.00907535
I0824 17:41:03.252563 20733 solver.cpp:244]     Train net output #0: accuracy = 1
I0824 17:41:03.252583 20733 sgd_solver.cpp:106] Iteration 27400, lr = 1e-05
I0824 17:46:45.576907 20733 solver.cpp:228] Iteration 27500, loss = 0.00131245
I0824 17:46:45.577015 20733 solver.cpp:244]     Train net output #0: accuracy = 1
I0824 17:46:45.577030 20733 sgd_solver.cpp:106] Iteration 27500, lr = 1e-05
I0824 17:52:27.763188 20733 solver.cpp:228] Iteration 27600, loss = 0.00102875
I0824 17:52:27.763270 20733 solver.cpp:244]     Train net output #0: accuracy = 1
I0824 17:52:27.763280 20733 sgd_solver.cpp:106] Iteration 27600, lr = 1e-05
I0824 17:58:12.591743 20733 solver.cpp:228] Iteration 27700, loss = 0.0055252
I0824 17:58:12.591858 20733 solver.cpp:244]     Train net output #0: accuracy = 1
I0824 17:58:12.591871 20733 sgd_solver.cpp:106] Iteration 27700, lr = 1e-05
I0824 18:03:58.766105 20733 solver.cpp:228] Iteration 27800, loss = 0.00474457
I0824 18:03:58.766182 20733 solver.cpp:244]     Train net output #0: accuracy = 1
I0824 18:03:58.766193 20733 sgd_solver.cpp:106] Iteration 27800, lr = 1e-05
I0824 18:09:58.267660 20733 solver.cpp:228] Iteration 27900, loss = 0.00134076
I0824 18:09:58.267735 20733 solver.cpp:244]     Train net output #0: accuracy = 1
I0824 18:09:58.267745 20733 sgd_solver.cpp:106] Iteration 27900, lr = 1e-05
I0824 18:15:44.237223 20733 solver.cpp:337] Iteration 28000, Testing net (#0)
I0824 18:19:53.533466 20733 solver.cpp:404]     Test net output #0: accuracy = 0.74336
I0824 18:19:56.951540 20733 solver.cpp:228] Iteration 28000, loss = 0.00203718
I0824 18:19:56.951576 20733 solver.cpp:244]     Train net output #0: accuracy = 1
I0824 18:19:56.951584 20733 sgd_solver.cpp:106] Iteration 28000, lr = 1e-05
I0824 18:25:49.749332 20733 solver.cpp:228] Iteration 28100, loss = 0.00302345
I0824 18:25:49.749408 20733 solver.cpp:244]     Train net output #0: accuracy = 1
I0824 18:25:49.749418 20733 sgd_solver.cpp:106] Iteration 28100, lr = 1e-05
I0824 18:31:59.077685 20733 solver.cpp:228] Iteration 28200, loss = 0.00219356
I0824 18:31:59.077808 20733 solver.cpp:244]     Train net output #0: accuracy = 1
I0824 18:31:59.077829 20733 sgd_solver.cpp:106] Iteration 28200, lr = 1e-05
I0824 18:38:32.718085 20733 solver.cpp:228] Iteration 28300, loss = 0.00350911
I0824 18:38:32.719164 20733 solver.cpp:244]     Train net output #0: accuracy = 1
I0824 18:38:32.719174 20733 sgd_solver.cpp:106] Iteration 28300, lr = 1e-05
I0824 18:44:21.701216 20733 solver.cpp:228] Iteration 28400, loss = 0.00440611
I0824 18:44:21.701324 20733 solver.cpp:244]     Train net output #0: accuracy = 1
I0824 18:44:21.701335 20733 sgd_solver.cpp:106] Iteration 28400, lr = 1e-05
I0824 18:50:24.772819 20733 solver.cpp:228] Iteration 28500, loss = 0.00375158
I0824 18:50:24.772919 20733 solver.cpp:244]     Train net output #0: accuracy = 1
I0824 18:50:24.772938 20733 sgd_solver.cpp:106] Iteration 28500, lr = 1e-05
I0824 18:56:12.684226 20733 solver.cpp:228] Iteration 28600, loss = 0.00552249
I0824 18:56:12.684300 20733 solver.cpp:244]     Train net output #0: accuracy = 1
I0824 18:56:12.684314 20733 sgd_solver.cpp:106] Iteration 28600, lr = 1e-05
I0824 19:02:20.605667 20733 solver.cpp:228] Iteration 28700, loss = 0.00363824
I0824 19:02:20.605792 20733 solver.cpp:244]     Train net output #0: accuracy = 1
I0824 19:02:20.605813 20733 sgd_solver.cpp:106] Iteration 28700, lr = 1e-05
I0824 19:08:27.493854 20733 solver.cpp:228] Iteration 28800, loss = 0.00313373
I0824 19:08:27.505203 20733 solver.cpp:244]     Train net output #0: accuracy = 1
I0824 19:08:27.505231 20733 sgd_solver.cpp:106] Iteration 28800, lr = 1e-05
I0824 19:14:35.814544 20733 solver.cpp:228] Iteration 28900, loss = 0.00512658
I0824 19:14:35.824609 20733 solver.cpp:244]     Train net output #0: accuracy = 1
I0824 19:14:35.824651 20733 sgd_solver.cpp:106] Iteration 28900, lr = 1e-05
I0824 19:20:43.436321 20733 solver.cpp:337] Iteration 29000, Testing net (#0)
I0824 19:25:08.614668 20733 solver.cpp:404]     Test net output #0: accuracy = 0.74328
I0824 19:25:12.241052 20733 solver.cpp:228] Iteration 29000, loss = 0.00430102
I0824 19:25:12.241106 20733 solver.cpp:244]     Train net output #0: accuracy = 1
I0824 19:25:12.241119 20733 sgd_solver.cpp:106] Iteration 29000, lr = 1e-05
I0824 19:31:25.984671 20733 solver.cpp:228] Iteration 29100, loss = 0.0119175
I0824 19:31:25.984745 20733 solver.cpp:244]     Train net output #0: accuracy = 1
I0824 19:31:25.984755 20733 sgd_solver.cpp:106] Iteration 29100, lr = 1e-05
I0824 19:37:35.250898 20733 solver.cpp:228] Iteration 29200, loss = 0.00150183
I0824 19:37:35.250977 20733 solver.cpp:244]     Train net output #0: accuracy = 1
I0824 19:37:35.250988 20733 sgd_solver.cpp:106] Iteration 29200, lr = 1e-05
I0824 19:43:46.368441 20733 solver.cpp:228] Iteration 29300, loss = 0.00419951
I0824 19:43:46.368574 20733 solver.cpp:244]     Train net output #0: accuracy = 1
I0824 19:43:46.368592 20733 sgd_solver.cpp:106] Iteration 29300, lr = 1e-05
I0824 19:49:57.549998 20733 solver.cpp:228] Iteration 29400, loss = 0.00258208
I0824 19:49:57.550226 20733 solver.cpp:244]     Train net output #0: accuracy = 1
I0824 19:49:57.550237 20733 sgd_solver.cpp:106] Iteration 29400, lr = 1e-05
I0824 19:56:05.314818 20733 solver.cpp:228] Iteration 29500, loss = 0.00476387
I0824 19:56:05.314904 20733 solver.cpp:244]     Train net output #0: accuracy = 1
I0824 19:56:05.314915 20733 sgd_solver.cpp:106] Iteration 29500, lr = 1e-05
I0824 20:02:16.565937 20733 solver.cpp:228] Iteration 29600, loss = 0.000929127
I0824 20:02:16.566007 20733 solver.cpp:244]     Train net output #0: accuracy = 1
I0824 20:02:16.566016 20733 sgd_solver.cpp:106] Iteration 29600, lr = 1e-05
I0824 20:08:27.505091 20733 solver.cpp:228] Iteration 29700, loss = 0.00312585
I0824 20:08:27.505185 20733 solver.cpp:244]     Train net output #0: accuracy = 1
I0824 20:08:27.505195 20733 sgd_solver.cpp:106] Iteration 29700, lr = 1e-05
I0824 20:14:38.127496 20733 solver.cpp:228] Iteration 29800, loss = 0.00482686
I0824 20:14:38.127591 20733 solver.cpp:244]     Train net output #0: accuracy = 1
I0824 20:14:38.127602 20733 sgd_solver.cpp:106] Iteration 29800, lr = 1e-05
I0824 20:20:46.643769 20733 solver.cpp:228] Iteration 29900, loss = 0.00183967
I0824 20:20:46.643857 20733 solver.cpp:244]     Train net output #0: accuracy = 1
I0824 20:20:46.643867 20733 sgd_solver.cpp:106] Iteration 29900, lr = 1e-05
I0824 20:26:50.908823 20733 solver.cpp:454] Snapshotting to binary proto file model/mn_iter_30000.caffemodel
I0824 20:26:50.934254 20733 sgd_solver.cpp:273] Snapshotting solver state to binary proto file model/mn_iter_30000.solverstate
I0824 20:26:50.941411 20733 solver.cpp:337] Iteration 30000, Testing net (#0)
I0824 20:31:15.217512 20733 solver.cpp:404]     Test net output #0: accuracy = 0.7404
I0824 20:31:18.486552 20733 solver.cpp:228] Iteration 30000, loss = 0.00356575
I0824 20:31:18.486587 20733 solver.cpp:244]     Train net output #0: accuracy = 1
I0824 20:31:18.486594 20733 sgd_solver.cpp:106] Iteration 30000, lr = 1e-05
I0824 20:37:37.145701 20733 solver.cpp:228] Iteration 30100, loss = 0.00164995
I0824 20:37:37.145793 20733 solver.cpp:244]     Train net output #0: accuracy = 1
I0824 20:37:37.145804 20733 sgd_solver.cpp:106] Iteration 30100, lr = 1e-05
I0824 20:43:49.202291 20733 solver.cpp:228] Iteration 30200, loss = 0.00618439
…
I0824 21:14:10.515491 20733 solver.cpp:244]     Train net output #0: accuracy = 1
I0824 21:14:10.515504 20733 sgd_solver.cpp:106] Iteration 30700, lr = 1e-05
I0824 21:20:23.441037 20733 solver.cpp:228] Iteration 30800, loss = 0.00246655
I0824 21:20:23.441131 20733 solver.cpp:244]     Train net output #0: accuracy = 1
I0824 21:20:23.441143 20733 sgd_solver.cpp:106] Iteration 30800, lr = 1e-05
I0824 21:26:33.912097 20733 solver.cpp:228] Iteration 30900, loss = 0.00163705
I0824 21:26:33.912204 20733 solver.cpp:244]     Train net output #0: accuracy = 1
I0824 21:26:33.912217 20733 sgd_solver.cpp:106] Iteration 30900, lr = 1e-05
I0824 21:32:38.306685 20733 solver.cpp:337] Iteration 31000, Testing net (#0)
I0824 21:37:09.317167 20733 solver.cpp:404]     Test net output #0: accuracy = 0.73784
I0824 21:37:12.699654 20733 solver.cpp:228] Iteration 31000, loss = 0.017406
I0824 21:37:12.699682 20733 solver.cpp:244]     Train net output #0: accuracy = 0.98
I0824 21:37:12.699689 20733 sgd_solver.cpp:106] Iteration 31000, lr = 1e-05
I0824 21:43:14.113230 20733 solver.cpp:228] Iteration 31100, loss = 0.00726794
I0824 21:43:14.113308 20733 solver.cpp:244]     Train net output #0: accuracy = 1
I0824 21:43:14.113319 20733 sgd_solver.cpp:106] Iteration 31100, lr = 1e-05
I0824 21:49:16.116025 20733 solver.cpp:228] Iteration 31200, loss = 0.00460061
I0824 21:49:16.116132 20733 solver.cpp:244]     Train net output #0: accuracy = 1
I0824 21:49:16.116143 20733 sgd_solver.cpp:106] Iteration 31200, lr = 1e-05
I0824 21:55:36.668706 20733 solver.cpp:228] Iteration 31300, loss = 0.00137018
I0824 21:55:36.668783 20733 solver.cpp:244]     Train net output #0: accuracy = 1
I0824 21:55:36.668794 20733 sgd_solver.cpp:106] Iteration 31300, lr = 1e-05
I0824 22:01:36.038398 20733 solver.cpp:228] Iteration 31400, loss = 0.0022295
I0824 22:01:36.038468 20733 solver.cpp:244]     Train net output #0: accuracy = 1
I0824 22:01:36.038477 20733 sgd_solver.cpp:106] Iteration 31400, lr = 1e-05
I0824 22:07:46.239076 20733 solver.cpp:228] Iteration 31500, loss = 0.0028609
I0824 22:07:46.239193 20733 solver.cpp:244]     Train net output #0: accuracy = 1
I0824 22:07:46.239204 20733 sgd_solver.cpp:106] Iteration 31500, lr = 1e-05
I0824 22:13:56.167892 20733 solver.cpp:228] Iteration 31600, loss = 0.012175
I0824 22:13:56.168014 20733 solver.cpp:244]     Train net output #0: accuracy = 1
I0824 22:13:56.168028 20733 sgd_solver.cpp:106] Iteration 31600, lr = 1e-05
I0824 22:20:03.235527 20733 solver.cpp:228] Iteration 31700, loss = 0.00580276
I0824 22:20:03.235662 20733 solver.cpp:244]     Train net output #0: accuracy = 1
I0824 22:20:03.235683 20733 sgd_solver.cpp:106] Iteration 31700, lr = 1e-05
I0824 22:25:56.787612 20733 solver.cpp:228] Iteration 31800, loss = 0.00468781
I0824 22:25:56.787765 20733 solver.cpp:244]     Train net output #0: accuracy = 1
I0824 22:25:56.787777 20733 sgd_solver.cpp:106] Iteration 31800, lr = 1e-05
I0824 22:31:40.499241 20733 solver.cpp:228] Iteration 31900, loss = 0.00149434
I0824 22:31:40.499331 20733 solver.cpp:244]     Train net output #0: accuracy = 1
I0824 22:31:40.499347 20733 sgd_solver.cpp:106] Iteration 31900, lr = 1e-05
I0824 22:37:26.625452 20733 solver.cpp:337] Iteration 32000, Testing net (#0)
I0824 22:41:45.819310 20733 solver.cpp:404]     Test net output #0: accuracy = 0.74448
I0824 22:41:49.153689 20733 solver.cpp:228] Iteration 32000, loss = 0.00302951
I0824 22:41:49.153717 20733 solver.cpp:244]     Train net output #0: accuracy = 1
I0824 22:41:49.153724 20733 sgd_solver.cpp:106] Iteration 32000, lr = 1e-05
I0824 22:47:58.537853 20733 solver.cpp:228] Iteration 32100, loss = 0.00486231
I0824 22:47:58.537953 20733 solver.cpp:244]     Train net output #0: accuracy = 1
I0824 22:47:58.537964 20733 sgd_solver.cpp:106] Iteration 32100, lr = 1e-05
I0824 22:54:11.850198 20733 solver.cpp:228] Iteration 32200, loss = 0.0306154
I0824 22:54:11.850294 20733 solver.cpp:244]     Train net output #0: accuracy = 0.98
I0824 22:54:11.850309 20733 sgd_solver.cpp:106] Iteration 32200, lr = 1e-05
I0824 23:00:24.540817 20733 solver.cpp:228] Iteration 32300, loss = 0.00652179
I0824 23:00:24.540946 20733 solver.cpp:244]     Train net output #0: accuracy = 1
I0824 23:00:24.540966 20733 sgd_solver.cpp:106] Iteration 32300, lr = 1e-05
I0824 23:06:28.759946 20733 solver.cpp:228] Iteration 32400, loss = 0.00298649
I0824 23:06:28.760038 20733 solver.cpp:244]     Train net output #0: accuracy = 1
I0824 23:06:28.760049 20733 sgd_solver.cpp:106] Iteration 32400, lr = 1e-05
I0824 23:12:40.881379 20733 solver.cpp:228] Iteration 32500, loss = 0.00320567
I0824 23:12:40.881501 20733 solver.cpp:244]     Train net output #0: accuracy = 1
I0824 23:12:40.881518 20733 sgd_solver.cpp:106] Iteration 32500, lr = 1e-05
I0824 23:18:40.976122 20733 solver.cpp:228] Iteration 32600, loss = 0.00257216
I0824 23:18:40.976202 20733 solver.cpp:244]     Train net output #0: accuracy = 1
I0824 23:18:40.976214 20733 sgd_solver.cpp:106] Iteration 32600, lr = 1e-05
I0824 23:24:46.279456 20733 solver.cpp:228] Iteration 32700, loss = 0.00282427
I0824 23:24:46.279539 20733 solver.cpp:244]     Train net output #0: accuracy = 1
I0824 23:24:46.279549 20733 sgd_solver.cpp:106] Iteration 32700, lr = 1e-05
I0824 23:30:32.406708 20733 solver.cpp:228] Iteration 32800, loss = 0.00382878
I0824 23:30:32.408475 20733 solver.cpp:244]     Train net output #0: accuracy = 1
I0824 23:30:32.408550 20733 sgd_solver.cpp:106] Iteration 32800, lr = 1e-05
I0824 23:36:19.181759 20733 solver.cpp:228] Iteration 32900, loss = 0.0170114
I0824 23:36:19.181831 20733 solver.cpp:244]     Train net output #0: accuracy = 1
I0824 23:36:19.181840 20733 sgd_solver.cpp:106] Iteration 32900, lr = 1e-05
I0824 23:42:05.354619 20733 solver.cpp:337] Iteration 33000, Testing net (#0)
I0824 23:46:13.601016 20733 solver.cpp:404]     Test net output #0: accuracy = 0.74408
I0824 23:46:16.946550 20733 solver.cpp:228] Iteration 33000, loss = 0.00164078
I0824 23:46:16.946579 20733 solver.cpp:244]     Train net output #0: accuracy = 1
I0824 23:46:16.946588 20733 sgd_solver.cpp:106] Iteration 33000, lr = 1e-05
I0824 23:52:02.187928 20733 solver.cpp:228] Iteration 33100, loss = 0.00285819
I0824 23:52:02.188066 20733 solver.cpp:244]     Train net output #0: accuracy = 1
I0824 23:52:02.188076 20733 sgd_solver.cpp:106] Iteration 33100, lr = 1e-05
I0824 23:57:42.508034 20733 solver.cpp:228] Iteration 33200, loss = 0.0208491
I0824 23:57:42.508703 20733 solver.cpp:244]     Train net output #0: accuracy = 0.98
I0824 23:57:42.508718 20733 sgd_solver.cpp:106] Iteration 33200, lr = 1e-05
I0825 00:03:22.362398 20733 solver.cpp:228] Iteration 33300, loss = 0.00672037
I0825 00:03:22.362480 20733 solver.cpp:244]     Train net output #0: accuracy = 1
I0825 00:03:22.362495 20733 sgd_solver.cpp:106] Iteration 33300, lr = 1e-05
I0825 00:09:02.328486 20733 solver.cpp:228] Iteration 33400, loss = 0.00450157
I0825 00:09:02.328568 20733 solver.cpp:244]     Train net output #0: accuracy = 1
I0825 00:09:02.328578 20733 sgd_solver.cpp:106] Iteration 33400, lr = 1e-05
I0825 00:14:41.946297 20733 solver.cpp:228] Iteration 33500, loss = 0.00248718
I0825 00:14:41.946379 20733 solver.cpp:244]     Train net output #0: accuracy = 1
I0825 00:14:41.946391 20733 sgd_solver.cpp:106] Iteration 33500, lr = 1e-05
I0825 00:20:24.155508 20733 solver.cpp:228] Iteration 33600, loss = 0.00341594
I0825 00:20:24.155613 20733 solver.cpp:244]     Train net output #0: accuracy = 1
I0825 00:20:24.155628 20733 sgd_solver.cpp:106] Iteration 33600, lr = 1e-05
I0825 00:26:04.431824 20733 solver.cpp:228] Iteration 33700, loss = 0.00788951
I0825 00:26:04.431910 20733 solver.cpp:244]     Train net output #0: accuracy = 1
I0825 00:26:04.431921 20733 sgd_solver.cpp:106] Iteration 33700, lr = 1e-05
I0825 00:31:44.299104 20733 solver.cpp:228] Iteration 33800, loss = 0.00974616
I0825 00:31:44.299197 20733 solver.cpp:244]     Train net output #0: accuracy = 1
I0825 00:31:44.299212 20733 sgd_solver.cpp:106] Iteration 33800, lr = 1e-05
I0825 00:37:24.094488 20733 solver.cpp:228] Iteration 33900, loss = 0.00218358
I0825 00:37:24.094566 20733 solver.cpp:244]     Train net output #0: accuracy = 1
I0825 00:37:24.094578 20733 sgd_solver.cpp:106] Iteration 33900, lr = 1e-05
I0825 00:43:01.391214 20733 solver.cpp:337] Iteration 34000, Testing net (#0)
I0825 00:47:03.367693 20733 solver.cpp:404]     Test net output #0: accuracy = 0.74272
I0825 00:47:06.654623 20733 solver.cpp:228] Iteration 34000, loss = 0.00282808
I0825 00:47:06.654656 20733 solver.cpp:244]     Train net output #0: accuracy = 1
I0825 00:47:06.654665 20733 sgd_solver.cpp:106] Iteration 34000, lr = 1e-05
I0825 00:52:46.758282 20733 solver.cpp:228] Iteration 34100, loss = 0.0016648
I0825 00:52:46.758368 20733 solver.cpp:244]     Train net output #0: accuracy = 1
I0825 00:52:46.758383 20733 sgd_solver.cpp:106] Iteration 34100, lr = 1e-05
I0825 00:58:27.177855 20733 solver.cpp:228] Iteration 34200, loss = 0.0010364
I0825 00:58:27.177932 20733 solver.cpp:244]     Train net output #0: accuracy = 1
I0825 00:58:27.177942 20733 sgd_solver.cpp:106] Iteration 34200, lr = 1e-05
I0825 01:04:07.386067 20733 solver.cpp:228] Iteration 34300, loss = 0.00283675
I0825 01:04:07.386138 20733 solver.cpp:244]     Train net output #0: accuracy = 1
I0825 01:04:07.386152 20733 sgd_solver.cpp:106] Iteration 34300, lr = 1e-05
I0825 01:09:47.928252 20733 solver.cpp:228] Iteration 34400, loss = 0.00131009
I0825 01:09:47.928330 20733 solver.cpp:244]     Train net output #0: accuracy = 1
I0825 01:09:47.928339 20733 sgd_solver.cpp:106] Iteration 34400, lr = 1e-05
I0825 01:15:28.376169 20733 solver.cpp:228] Iteration 34500, loss = 0.00891268
I0825 01:15:28.377424 20733 solver.cpp:244]     Train net output #0: accuracy = 1
I0825 01:15:28.377434 20733 sgd_solver.cpp:106] Iteration 34500, lr = 1e-05
I0825 01:21:08.868371 20733 solver.cpp:228] Iteration 34600, loss = 0.00198921
I0825 01:21:08.868446 20733 solver.cpp:244]     Train net output #0: accuracy = 1
I0825 01:21:08.868456 20733 sgd_solver.cpp:106] Iteration 34600, lr = 1e-05
I0825 01:26:49.400300 20733 solver.cpp:228] Iteration 34700, loss = 0.00239221
I0825 01:26:49.400387 20733 solver.cpp:244]     Train net output #0: accuracy = 1
I0825 01:26:49.400396 20733 sgd_solver.cpp:106] Iteration 34700, lr = 1e-05
I0825 01:32:29.104210 20733 solver.cpp:228] Iteration 34800, loss = 0.0028242
I0825 01:32:29.104310 20733 solver.cpp:244]     Train net output #0: accuracy = 1
I0825 01:32:29.104321 20733 sgd_solver.cpp:106] Iteration 34800, lr = 1e-05
I0825 01:38:08.699960 20733 solver.cpp:228] Iteration 34900, loss = 0.00519803
I0825 01:38:08.700039 20733 solver.cpp:244]     Train net output #0: accuracy = 1
I0825 01:38:08.700048 20733 sgd_solver.cpp:106] Iteration 34900, lr = 1e-05
I0825 01:43:44.475711 20733 solver.cpp:454] Snapshotting to binary proto file model/mn_iter_35000.caffemodel
I0825 01:43:44.531996 20733 sgd_solver.cpp:273] Snapshotting solver state to binary proto file model/mn_iter_35000.solverstate
I0825 01:43:44.539955 20733 solver.cpp:337] Iteration 35000, Testing net (#0)
I0825 01:47:46.628238 20733 solver.cpp:404]     Test net output #0: accuracy = 0.73616
I0825 01:47:50.102360 20733 solver.cpp:228] Iteration 35000, loss = 0.00493676
I0825 01:47:50.102391 20733 solver.cpp:244]     Train net output #0: accuracy = 1
I0825 01:47:50.102399 20733 sgd_solver.cpp:106] Iteration 35000, lr = 1e-05
I0825 01:53:31.824851 20733 solver.cpp:228] Iteration 35100, loss = 0.00318676
I0825 01:53:31.824928 20733 solver.cpp:244]     Train net output #0: accuracy = 1
I0825 01:53:31.824937 20733 sgd_solver.cpp:106] Iteration 35100, lr = 1e-05
I0825 01:59:12.139763 20733 solver.cpp:228] Iteration 35200, loss = 0.0027224
I0825 01:59:12.139837 20733 solver.cpp:244]     Train net output #0: accuracy = 1
I0825 01:59:12.139845 20733 sgd_solver.cpp:106] Iteration 35200, lr = 1e-05
I0825 02:04:52.060582 20733 solver.cpp:228] Iteration 35300, loss = 0.00335204
I0825 02:04:52.060660 20733 solver.cpp:244]     Train net output #0: accuracy = 1
I0825 02:04:52.060669 20733 sgd_solver.cpp:106] Iteration 35300, lr = 1e-05
I0825 02:10:32.288432 20733 solver.cpp:228] Iteration 35400, loss = 0.0299735
I0825 02:10:32.288524 20733 solver.cpp:244]     Train net output #0: accuracy = 0.98
I0825 02:10:32.288533 20733 sgd_solver.cpp:106] Iteration 35400, lr = 1e-05
I0825 02:16:12.549423 20733 solver.cpp:228] Iteration 35500, loss = 0.00283006
I0825 02:16:12.549520 20733 solver.cpp:244]     Train net output #0: accuracy = 1
I0825 02:16:12.549531 20733 sgd_solver.cpp:106] Iteration 35500, lr = 1e-05
I0825 02:21:53.088469 20733 solver.cpp:228] Iteration 35600, loss = 0.0405065
I0825 02:21:53.088559 20733 solver.cpp:244]     Train net output #0: accuracy = 0.98
I0825 02:21:53.088573 20733 sgd_solver.cpp:106] Iteration 35600, lr = 1e-05
I0825 02:27:34.086949 20733 solver.cpp:228] Iteration 35700, loss = 0.0050523
I0825 02:27:34.087026 20733 solver.cpp:244]     Train net output #0: accuracy = 1
I0825 02:27:34.087035 20733 sgd_solver.cpp:106] Iteration 35700, lr = 1e-05
I0825 02:33:13.810154 20733 solver.cpp:228] Iteration 35800, loss = 0.00459
I0825 02:33:13.810231 20733 solver.cpp:244]     Train net output #0: accuracy = 1
I0825 02:33:13.810243 20733 sgd_solver.cpp:106] Iteration 35800, lr = 1e-05
I0825 02:38:54.187786 20733 solver.cpp:228] Iteration 35900, loss = 0.0103682
I0825 02:38:54.187860 20733 solver.cpp:244]     Train net output #0: accuracy = 1
I0825 02:38:54.187868 20733 sgd_solver.cpp:106] Iteration 35900, lr = 1e-05
I0825 02:44:33.755475 20733 solver.cpp:337] Iteration 36000, Testing net (#0)
I0825 02:48:36.947084 20733 solver.cpp:404]     Test net output #0: accuracy = 0.74168
I0825 02:48:40.257738 20733 solver.cpp:228] Iteration 36000, loss = 0.00135234
I0825 02:48:40.257769 20733 solver.cpp:244]     Train net output #0: accuracy = 1
I0825 02:48:40.257776 20733 sgd_solver.cpp:106] Iteration 36000, lr = 1e-05
I0825 02:54:20.364190 20733 solver.cpp:228] Iteration 36100, loss = 0.0147291
I0825 02:54:20.364282 20733 solver.cpp:244]     Train net output #0: accuracy = 1
I0825 02:54:20.364297 20733 sgd_solver.cpp:106] Iteration 36100, lr = 1e-05
I0825 03:00:00.888520 20733 solver.cpp:228] Iteration 36200, loss = 0.00289317
I0825 03:00:00.888728 20733 solver.cpp:244]     Train net output #0: accuracy = 1
I0825 03:00:00.888741 20733 sgd_solver.cpp:106] Iteration 36200, lr = 1e-05
I0825 03:05:41.063493 20733 solver.cpp:228] Iteration 36300, loss = 0.00315984
I0825 03:05:41.063587 20733 solver.cpp:244]     Train net output #0: accuracy = 1
I0825 03:05:41.063598 20733 sgd_solver.cpp:106] Iteration 36300, lr = 1e-05
I0825 03:11:20.496532 20733 solver.cpp:228] Iteration 36400, loss = 0.00263857
I0825 03:11:20.496623 20733 solver.cpp:244]     Train net output #0: accuracy = 1
I0825 03:11:20.496634 20733 sgd_solver.cpp:106] Iteration 36400, lr = 1e-05
I0825 03:17:00.245347 20733 solver.cpp:228] Iteration 36500, loss = 0.007523
I0825 03:17:00.245980 20733 solver.cpp:244]     Train net output #0: accuracy = 1
I0825 03:17:00.245988 20733 sgd_solver.cpp:106] Iteration 36500, lr = 1e-05
I0825 03:22:40.698828 20733 solver.cpp:228] Iteration 36600, loss = 0.0034333
I0825 03:22:40.698932 20733 solver.cpp:244]     Train net output #0: accuracy = 1
I0825 03:22:40.698957 20733 sgd_solver.cpp:106] Iteration 36600, lr = 1e-05
I0825 03:28:20.931962 20733 solver.cpp:228] Iteration 36700, loss = 0.00181947
I0825 03:28:20.932031 20733 solver.cpp:244]     Train net output #0: accuracy = 1
I0825 03:28:20.932040 20733 sgd_solver.cpp:106] Iteration 36700, lr = 1e-05
I0825 03:34:01.675207 20733 solver.cpp:228] Iteration 36800, loss = 0.0013441
I0825 03:34:01.675307 20733 solver.cpp:244]     Train net output #0: accuracy = 1
I0825 03:34:01.675317 20733 sgd_solver.cpp:106] Iteration 36800, lr = 1e-05
I0825 03:39:42.470180 20733 solver.cpp:228] Iteration 36900, loss = 0.00374685
I0825 03:39:42.470254 20733 solver.cpp:244]     Train net output #0: accuracy = 1
I0825 03:39:42.470264 20733 sgd_solver.cpp:106] Iteration 36900, lr = 1e-05
I0825 03:45:18.784806 20733 solver.cpp:337] Iteration 37000, Testing net (#0)
I0825 03:49:20.696038 20733 solver.cpp:404]     Test net output #0: accuracy = 0.74328
I0825 03:49:23.998549 20733 solver.cpp:228] Iteration 37000, loss = 0.00202477
I0825 03:49:23.998579 20733 solver.cpp:244]     Train net output #0: accuracy = 1
I0825 03:49:23.998586 20733 sgd_solver.cpp:106] Iteration 37000, lr = 1e-05
I0825 03:55:03.828755 20733 solver.cpp:228] Iteration 37100, loss = 0.00772757
I0825 03:55:03.828848 20733 solver.cpp:244]     Train net output #0: accuracy = 1
I0825 03:55:03.828858 20733 sgd_solver.cpp:106] Iteration 37100, lr = 1e-05
I0825 04:00:44.791746 20733 solver.cpp:228] Iteration 37200, loss = 0.00239463
I0825 04:00:44.791824 20733 solver.cpp:244]     Train net output #0: accuracy = 1
I0825 04:00:44.791834 20733 sgd_solver.cpp:106] Iteration 37200, lr = 1e-05
I0825 04:06:26.426642 20733 solver.cpp:228] Iteration 37300, loss = 0.00488846
I0825 04:06:26.426717 20733 solver.cpp:244]     Train net output #0: accuracy = 1
I0825 04:06:26.426726 20733 sgd_solver.cpp:106] Iteration 37300, lr = 1e-05
I0825 04:12:08.107338 20733 solver.cpp:228] Iteration 37400, loss = 0.00164337
I0825 04:12:08.107409 20733 solver.cpp:244]     Train net output #0: accuracy = 1
I0825 04:12:08.107417 20733 sgd_solver.cpp:106] Iteration 37400, lr = 1e-05
I0825 04:17:48.726135 20733 solver.cpp:228] Iteration 37500, loss = 0.0104239
I0825 04:17:48.726208 20733 solver.cpp:244]     Train net output #0: accuracy = 1
I0825 04:17:48.726217 20733 sgd_solver.cpp:106] Iteration 37500, lr = 1e-05
I0825 04:23:28.751685 20733 solver.cpp:228] Iteration 37600, loss = 0.0015598
I0825 04:23:28.751756 20733 solver.cpp:244]     Train net output #0: accuracy = 1
I0825 04:23:28.751765 20733 sgd_solver.cpp:106] Iteration 37600, lr = 1e-05
I0825 04:29:09.463616 20733 solver.cpp:228] Iteration 37700, loss = 0.00708164
I0825 04:29:09.463982 20733 solver.cpp:244]     Train net output #0: accuracy = 1
I0825 04:29:09.463992 20733 sgd_solver.cpp:106] Iteration 37700, lr = 1e-05
I0825 04:34:49.435537 20733 solver.cpp:228] Iteration 37800, loss = 0.00160053
I0825 04:34:49.435987 20733 solver.cpp:244]     Train net output #0: accuracy = 1
I0825 04:34:49.435997 20733 sgd_solver.cpp:106] Iteration 37800, lr = 1e-05
I0825 04:40:29.292531 20733 solver.cpp:228] Iteration 37900, loss = 0.00173213
I0825 04:40:29.292637 20733 solver.cpp:244]     Train net output #0: accuracy = 1
I0825 04:40:29.292649 20733 sgd_solver.cpp:106] Iteration 37900, lr = 1e-05
I0825 04:46:06.452139 20733 solver.cpp:337] Iteration 38000, Testing net (#0)
I0825 04:50:08.436440 20733 solver.cpp:404]     Test net output #0: accuracy = 0.74208
I0825 04:50:11.741228 20733 solver.cpp:228] Iteration 38000, loss = 0.00359069
I0825 04:50:11.741258 20733 solver.cpp:244]     Train net output #0: accuracy = 1
I0825 04:50:11.741266 20733 sgd_solver.cpp:106] Iteration 38000, lr = 1e-05
I0825 04:55:52.118201 20733 solver.cpp:228] Iteration 38100, loss = 0.00575384
I0825 04:55:52.118314 20733 solver.cpp:244]     Train net output #0: accuracy = 1
I0825 04:55:52.118330 20733 sgd_solver.cpp:106] Iteration 38100, lr = 1e-05
I0825 05:01:31.378195 20733 solver.cpp:228] Iteration 38200, loss = 0.0108467
I0825 05:01:31.378275 20733 solver.cpp:244]     Train net output #0: accuracy = 1
I0825 05:01:31.378285 20733 sgd_solver.cpp:106] Iteration 38200, lr = 1e-05
I0825 05:07:11.230437 20733 solver.cpp:228] Iteration 38300, loss = 0.00255917
I0825 05:07:11.230509 20733 solver.cpp:244]     Train net output #0: accuracy = 1
I0825 05:07:11.230518 20733 sgd_solver.cpp:106] Iteration 38300, lr = 1e-05
I0825 05:12:50.920274 20733 solver.cpp:228] Iteration 38400, loss = 0.00524408
I0825 05:12:50.920377 20733 solver.cpp:244]     Train net output #0: accuracy = 1
I0825 05:12:50.920392 20733 sgd_solver.cpp:106] Iteration 38400, lr = 1e-05
I0825 05:18:30.722445 20733 solver.cpp:228] Iteration 38500, loss = 0.00148116
I0825 05:18:30.722515 20733 solver.cpp:244]     Train net output #0: accuracy = 1
I0825 05:18:30.722524 20733 sgd_solver.cpp:106] Iteration 38500, lr = 1e-05
I0825 05:24:11.898124 20733 solver.cpp:228] Iteration 38600, loss = 0.00358279
I0825 05:24:11.898208 20733 solver.cpp:244]     Train net output #0: accuracy = 1
I0825 05:24:11.898223 20733 sgd_solver.cpp:106] Iteration 38600, lr = 1e-05
I0825 05:29:52.691339 20733 solver.cpp:228] Iteration 38700, loss = 0.00176791
I0825 05:29:52.691422 20733 solver.cpp:244]     Train net output #0: accuracy = 1
I0825 05:29:52.691440 20733 sgd_solver.cpp:106] Iteration 38700, lr = 1e-05
I0825 05:35:33.093443 20733 solver.cpp:228] Iteration 38800, loss = 0.00204955
I0825 05:35:33.093518 20733 solver.cpp:244]     Train net output #0: accuracy = 1
I0825 05:35:33.093526 20733 sgd_solver.cpp:106] Iteration 38800, lr = 1e-05
I0825 05:41:13.635082 20733 solver.cpp:228] Iteration 38900, loss = 0.00204014
I0825 05:41:13.635164 20733 solver.cpp:244]     Train net output #0: accuracy = 1
I0825 05:41:13.635176 20733 sgd_solver.cpp:106] Iteration 38900, lr = 1e-05
I0825 05:46:49.917896 20733 solver.cpp:337] Iteration 39000, Testing net (#0)
I0825 05:50:51.968003 20733 solver.cpp:404]     Test net output #0: accuracy = 0.7436
I0825 05:50:55.269569 20733 solver.cpp:228] Iteration 39000, loss = 0.00200056
I0825 05:50:55.269608 20733 solver.cpp:244]     Train net output #0: accuracy = 1
I0825 05:50:55.269620 20733 sgd_solver.cpp:106] Iteration 39000, lr = 1e-05
I0825 05:56:35.969355 20733 solver.cpp:228] Iteration 39100, loss = 0.00537678
I0825 05:56:35.969431 20733 solver.cpp:244]     Train net output #0: accuracy = 1
I0825 05:56:35.969442 20733 sgd_solver.cpp:106] Iteration 39100, lr = 1e-05
I0825 06:02:16.974756 20733 solver.cpp:228] Iteration 39200, loss = 0.0307027
I0825 06:02:16.974838 20733 solver.cpp:244]     Train net output #0: accuracy = 0.98
I0825 06:02:16.974850 20733 sgd_solver.cpp:106] Iteration 39200, lr = 1e-05
I0825 06:07:56.751112 20733 solver.cpp:228] Iteration 39300, loss = 0.0019836
I0825 06:07:56.751704 20733 solver.cpp:244]     Train net output #0: accuracy = 1
I0825 06:07:56.751714 20733 sgd_solver.cpp:106] Iteration 39300, lr = 1e-05
I0825 06:13:37.736721 20733 solver.cpp:228] Iteration 39400, loss = 0.00419301
I0825 06:13:37.736807 20733 solver.cpp:244]     Train net output #0: accuracy = 1
I0825 06:13:37.736817 20733 sgd_solver.cpp:106] Iteration 39400, lr = 1e-05
I0825 06:19:18.030062 20733 solver.cpp:228] Iteration 39500, loss = 0.00238391
I0825 06:19:18.030191 20733 solver.cpp:244]     Train net output #0: accuracy = 1
I0825 06:19:18.030210 20733 sgd_solver.cpp:106] Iteration 39500, lr = 1e-05
I0825 06:24:58.563758 20733 solver.cpp:228] Iteration 39600, loss = 0.00288923
I0825 06:24:58.563843 20733 solver.cpp:244]     Train net output #0: accuracy = 1
I0825 06:24:58.563853 20733 sgd_solver.cpp:106] Iteration 39600, lr = 1e-05
I0825 06:30:38.952548 20733 solver.cpp:228] Iteration 39700, loss = 0.00287692
I0825 06:30:38.952625 20733 solver.cpp:244]     Train net output #0: accuracy = 1
I0825 06:30:38.952637 20733 sgd_solver.cpp:106] Iteration 39700, lr = 1e-05
I0825 06:36:20.121462 20733 solver.cpp:228] Iteration 39800, loss = 0.0402019
I0825 06:36:20.121551 20733 solver.cpp:244]     Train net output #0: accuracy = 0.98
I0825 06:36:20.121561 20733 sgd_solver.cpp:106] Iteration 39800, lr = 1e-05
I0825 06:42:00.477268 20733 solver.cpp:228] Iteration 39900, loss = 0.0041818
I0825 06:42:00.477351 20733 solver.cpp:244]     Train net output #0: accuracy = 1
I0825 06:42:00.477365 20733 sgd_solver.cpp:106] Iteration 39900, lr = 1e-05
I0825 06:47:37.319653 20733 solver.cpp:454] Snapshotting to binary proto file model/mn_iter_40000.caffemodel
I0825 06:47:37.339968 20733 sgd_solver.cpp:273] Snapshotting solver state to binary proto file model/mn_iter_40000.solverstate
I0825 06:47:37.346657 20733 solver.cpp:337] Iteration 40000, Testing net (#0)
I0825 06:51:40.631747 20733 solver.cpp:404]     Test net output #0: accuracy = 0.74312
I0825 06:51:43.936995 20733 solver.cpp:228] Iteration 40000, loss = 0.000977932
I0825 06:51:43.937026 20733 solver.cpp:244]     Train net output #0: accuracy = 1
I0825 06:51:43.937032 20733 sgd_solver.cpp:106] Iteration 40000, lr = 1e-06
I0825 06:57:24.697397 20733 solver.cpp:228] Iteration 40100, loss = 0.00321261
I0825 06:57:24.697549 20733 solver.cpp:244]     Train net output #0: accuracy = 1
I0825 06:57:24.697559 20733 sgd_solver.cpp:106] Iteration 40100, lr = 1e-06
I0825 07:03:03.259922 20733 solver.cpp:228] Iteration 40200, loss = 0.00943193
I0825 07:03:03.262280 20733 solver.cpp:244]     Train net output #0: accuracy = 1
I0825 07:03:03.262290 20733 sgd_solver.cpp:106] Iteration 40200, lr = 1e-06
I0825 07:08:40.293126 20733 solver.cpp:228] Iteration 40300, loss = 0.00433609
I0825 07:08:40.293200 20733 solver.cpp:244]     Train net output #0: accuracy = 1
I0825 07:08:40.293208 20733 sgd_solver.cpp:106] Iteration 40300, lr = 1e-06
I0825 07:14:17.360452 20733 solver.cpp:228] Iteration 40400, loss = 0.00736033
I0825 07:14:17.361840 20733 solver.cpp:244]     Train net output #0: accuracy = 1
I0825 07:14:17.361848 20733 sgd_solver.cpp:106] Iteration 40400, lr = 1e-06
I0825 07:19:54.420259 20733 solver.cpp:228] Iteration 40500, loss = 0.00530924
I0825 07:19:54.420330 20733 solver.cpp:244]     Train net output #0: accuracy = 1
I0825 07:19:54.420337 20733 sgd_solver.cpp:106] Iteration 40500, lr = 1e-06
I0825 07:25:31.399075 20733 solver.cpp:228] Iteration 40600, loss = 0.00777459
I0825 07:25:31.399237 20733 solver.cpp:244]     Train net output #0: accuracy = 1
I0825 07:25:31.399246 20733 sgd_solver.cpp:106] Iteration 40600, lr = 1e-06
I0825 07:31:08.413997 20733 solver.cpp:228] Iteration 40700, loss = 0.00223408
I0825 07:31:08.414070 20733 solver.cpp:244]     Train net output #0: accuracy = 1
I0825 07:31:08.414079 20733 sgd_solver.cpp:106] Iteration 40700, lr = 1e-06
I0825 07:36:45.501451 20733 solver.cpp:228] Iteration 40800, loss = 0.00151395
I0825 07:36:45.501530 20733 solver.cpp:244]     Train net output #0: accuracy = 1
I0825 07:36:45.501538 20733 sgd_solver.cpp:106] Iteration 40800, lr = 1e-06
I0825 07:42:22.603989 20733 solver.cpp:228] Iteration 40900, loss = 0.00165755
I0825 07:42:22.604071 20733 solver.cpp:244]     Train net output #0: accuracy = 1
I0825 07:42:22.604080 20733 sgd_solver.cpp:106] Iteration 40900, lr = 1e-06
I0825 07:47:56.385249 20733 solver.cpp:337] Iteration 41000, Testing net (#0)
I0825 07:51:55.809140 20733 solver.cpp:404]     Test net output #0: accuracy = 0.7416
I0825 07:51:59.077563 20733 solver.cpp:228] Iteration 41000, loss = 0.00195493
I0825 07:51:59.077591 20733 solver.cpp:244]     Train net output #0: accuracy = 1
I0825 07:51:59.077600 20733 sgd_solver.cpp:106] Iteration 41000, lr = 1e-06
I0825 07:57:36.054101 20733 solver.cpp:228] Iteration 41100, loss = 0.0183419
I0825 07:57:36.054185 20733 solver.cpp:244]     Train net output #0: accuracy = 1
I0825 07:57:36.054194 20733 sgd_solver.cpp:106] Iteration 41100, lr = 1e-06
I0825 08:03:13.133410 20733 solver.cpp:228] Iteration 41200, loss = 0.00184384
I0825 08:03:13.133491 20733 solver.cpp:244]     Train net output #0: accuracy = 1
I0825 08:03:13.133502 20733 sgd_solver.cpp:106] Iteration 41200, lr = 1e-06
I0825 08:08:50.126297 20733 solver.cpp:228] Iteration 41300, loss = 0.00487907
I0825 08:08:50.126370 20733 solver.cpp:244]     Train net output #0: accuracy = 1
I0825 08:08:50.126379 20733 sgd_solver.cpp:106] Iteration 41300, lr = 1e-06
I0825 08:14:26.984308 20733 solver.cpp:228] Iteration 41400, loss = 0.00164721
I0825 08:14:26.984378 20733 solver.cpp:244]     Train net output #0: accuracy = 1
I0825 08:14:26.984387 20733 sgd_solver.cpp:106] Iteration 41400, lr = 1e-06
I0825 08:20:03.193076 20733 solver.cpp:228] Iteration 41500, loss = 0.00206544
I0825 08:20:03.193145 20733 solver.cpp:244]     Train net output #0: accuracy = 1
I0825 08:20:03.193153 20733 sgd_solver.cpp:106] Iteration 41500, lr = 1e-06
I0825 08:25:40.283565 20733 solver.cpp:228] Iteration 41600, loss = 0.00271726
I0825 08:25:40.283643 20733 solver.cpp:244]     Train net output #0: accuracy = 1
I0825 08:25:40.283651 20733 sgd_solver.cpp:106] Iteration 41600, lr = 1e-06
I0825 08:31:17.825909 20733 solver.cpp:228] Iteration 41700, loss = 0.00315409
I0825 08:31:17.825985 20733 solver.cpp:244]     Train net output #0: accuracy = 1
I0825 08:31:17.825994 20733 sgd_solver.cpp:106] Iteration 41700, lr = 1e-06
I0825 08:36:54.328174 20733 solver.cpp:228] Iteration 41800, loss = 0.00753363
I0825 08:36:54.328256 20733 solver.cpp:244]     Train net output #0: accuracy = 1
I0825 08:36:54.328265 20733 sgd_solver.cpp:106] Iteration 41800, lr = 1e-06
I0825 08:42:30.403581 20733 solver.cpp:228] Iteration 41900, loss = 0.00545683
I0825 08:42:30.403641 20733 solver.cpp:244]     Train net output #0: accuracy = 1
I0825 08:42:30.403650 20733 sgd_solver.cpp:106] Iteration 41900, lr = 1e-06
I0825 08:48:04.351294 20733 solver.cpp:337] Iteration 42000, Testing net (#0)
I0825 08:52:05.090088 20733 solver.cpp:404]     Test net output #0: accuracy = 0.74312
I0825 08:52:08.359412 20733 solver.cpp:228] Iteration 42000, loss = 0.00536609
I0825 08:52:08.359441 20733 solver.cpp:244]     Train net output #0: accuracy = 1
I0825 08:52:08.359449 20733 sgd_solver.cpp:106] Iteration 42000, lr = 1e-06
I0825 08:57:44.902276 20733 solver.cpp:228] Iteration 42100, loss = 0.00607951
I0825 08:57:44.902340 20733 solver.cpp:244]     Train net output #0: accuracy = 1
I0825 08:57:44.902349 20733 sgd_solver.cpp:106] Iteration 42100, lr = 1e-06
I0825 09:03:21.478582 20733 solver.cpp:228] Iteration 42200, loss = 0.00151281
I0825 09:03:21.478662 20733 solver.cpp:244]     Train net output #0: accuracy = 1
I0825 09:03:21.478672 20733 sgd_solver.cpp:106] Iteration 42200, lr = 1e-06
I0825 09:08:59.531119 20733 solver.cpp:228] Iteration 42300, loss = 0.0046197
I0825 09:08:59.531193 20733 solver.cpp:244]     Train net output #0: accuracy = 1
I0825 09:08:59.531201 20733 sgd_solver.cpp:106] Iteration 42300, lr = 1e-06
I0825 09:14:37.432828 20733 solver.cpp:228] Iteration 42400, loss = 0.00358491
I0825 09:14:37.432900 20733 solver.cpp:244]     Train net output #0: accuracy = 1
I0825 09:14:37.432909 20733 sgd_solver.cpp:106] Iteration 42400, lr = 1e-06
I0825 09:20:14.195850 20733 solver.cpp:228] Iteration 42500, loss = 0.00264518
I0825 09:20:14.195915 20733 solver.cpp:244]     Train net output #0: accuracy = 1
I0825 09:20:14.195924 20733 sgd_solver.cpp:106] Iteration 42500, lr = 1e-06
I0825 09:25:51.256892 20733 solver.cpp:228] Iteration 42600, loss = 0.00354606
I0825 09:25:51.257091 20733 solver.cpp:244]     Train net output #0: accuracy = 1
I0825 09:25:51.257100 20733 sgd_solver.cpp:106] Iteration 42600, lr = 1e-06
I0825 09:31:29.945049 20733 solver.cpp:228] Iteration 42700, loss = 0.0109091
I0825 09:31:29.945143 20733 solver.cpp:244]     Train net output #0: accuracy = 1
I0825 09:31:29.945153 20733 sgd_solver.cpp:106] Iteration 42700, lr = 1e-06
I0825 09:37:07.908263 20733 solver.cpp:228] Iteration 42800, loss = 0.00399791
I0825 09:37:07.908797 20733 solver.cpp:244]     Train net output #0: accuracy = 1
I0825 09:37:07.908807 20733 sgd_solver.cpp:106] Iteration 42800, lr = 1e-06
I0825 09:42:44.168938 20733 solver.cpp:228] Iteration 42900, loss = 0.012093
I0825 09:42:44.169034 20733 solver.cpp:244]     Train net output #0: accuracy = 1
I0825 09:42:44.169044 20733 sgd_solver.cpp:106] Iteration 42900, lr = 1e-06
I0825 09:48:15.288889 20733 solver.cpp:337] Iteration 43000, Testing net (#0)
I0825 09:52:13.492331 20733 solver.cpp:404]     Test net output #0: accuracy = 0.74376
I0825 09:52:16.736443 20733 solver.cpp:228] Iteration 43000, loss = 0.00287595
I0825 09:52:16.736474 20733 solver.cpp:244]     Train net output #0: accuracy = 1
I0825 09:52:16.736480 20733 sgd_solver.cpp:106] Iteration 43000, lr = 1e-06
I0825 09:57:50.846763 20733 solver.cpp:228] Iteration 43100, loss = 0.00217837
I0825 09:57:50.847631 20733 solver.cpp:244]     Train net output #0: accuracy = 1
I0825 09:57:50.847640 20733 sgd_solver.cpp:106] Iteration 43100, lr = 1e-06
I0825 10:03:25.298300 20733 solver.cpp:228] Iteration 43200, loss = 0.00277594
I0825 10:03:25.298377 20733 solver.cpp:244]     Train net output #0: accuracy = 1
I0825 10:03:25.298388 20733 sgd_solver.cpp:106] Iteration 43200, lr = 1e-06
I0825 10:08:59.580715 20733 solver.cpp:228] Iteration 43300, loss = 0.00496692
I0825 10:08:59.580777 20733 solver.cpp:244]     Train net output #0: accuracy = 1
I0825 10:08:59.580786 20733 sgd_solver.cpp:106] Iteration 43300, lr = 1e-06
I0825 10:14:33.996356 20733 solver.cpp:228] Iteration 43400, loss = 0.01546
I0825 10:14:33.996423 20733 solver.cpp:244]     Train net output #0: accuracy = 1
I0825 10:14:33.996433 20733 sgd_solver.cpp:106] Iteration 43400, lr = 1e-06
I0825 10:20:11.209969 20733 solver.cpp:228] Iteration 43500, loss = 0.00289136
I0825 10:20:11.210041 20733 solver.cpp:244]     Train net output #0: accuracy = 1
I0825 10:20:11.210050 20733 sgd_solver.cpp:106] Iteration 43500, lr = 1e-06
I0825 10:25:45.547130 20733 solver.cpp:228] Iteration 43600, loss = 0.00390602
I0825 10:25:45.547204 20733 solver.cpp:244]     Train net output #0: accuracy = 1
I0825 10:25:45.547214 20733 sgd_solver.cpp:106] Iteration 43600, lr = 1e-06
I0825 10:31:23.390911 20733 solver.cpp:228] Iteration 43700, loss = 0.00741145
I0825 10:31:23.391679 20733 solver.cpp:244]     Train net output #0: accuracy = 1
I0825 10:31:23.391690 20733 sgd_solver.cpp:106] Iteration 43700, lr = 1e-06
I0825 10:37:04.697696 20733 solver.cpp:228] Iteration 43800, loss = 0.00135314
I0825 10:37:04.697783 20733 solver.cpp:244]     Train net output #0: accuracy = 1
I0825 10:37:04.697795 20733 sgd_solver.cpp:106] Iteration 43800, lr = 1e-06
I0825 10:42:46.112321 20733 solver.cpp:228] Iteration 43900, loss = 0.00296229
I0825 10:42:46.112409 20733 solver.cpp:244]     Train net output #0: accuracy = 1
I0825 10:42:46.112419 20733 sgd_solver.cpp:106] Iteration 43900, lr = 1e-06
I0825 10:48:24.258051 20733 solver.cpp:337] Iteration 44000, Testing net (#0)
I0825 10:52:27.399039 20733 solver.cpp:404]     Test net output #0: accuracy = 0.74208
I0825 10:52:30.699251 20733 solver.cpp:228] Iteration 44000, loss = 0.0032145
I0825 10:52:30.699290 20733 solver.cpp:244]     Train net output #0: accuracy = 1
I0825 10:52:30.699297 20733 sgd_solver.cpp:106] Iteration 44000, lr = 1e-06
I0825 10:58:12.008229 20733 solver.cpp:228] Iteration 44100, loss = 0.00155577
I0825 10:58:12.008316 20733 solver.cpp:244]     Train net output #0: accuracy = 1
I0825 10:58:12.008325 20733 sgd_solver.cpp:106] Iteration 44100, lr = 1e-06
I0825 11:03:52.973698 20733 solver.cpp:228] Iteration 44200, loss = 0.0044338
I0825 11:03:52.974000 20733 solver.cpp:244]     Train net output #0: accuracy = 1
I0825 11:03:52.974010 20733 sgd_solver.cpp:106] Iteration 44200, lr = 1e-06
I0825 11:09:33.957738 20733 solver.cpp:228] Iteration 44300, loss = 0.00381147
I0825 11:09:33.957837 20733 solver.cpp:244]     Train net output #0: accuracy = 1
I0825 11:09:33.957847 20733 sgd_solver.cpp:106] Iteration 44300, lr = 1e-06
I0825 11:15:14.816795 20733 solver.cpp:228] Iteration 44400, loss = 0.00554705
I0825 11:15:14.818415 20733 solver.cpp:244]     Train net output #0: accuracy = 1
I0825 11:15:14.818437 20733 sgd_solver.cpp:106] Iteration 44400, lr = 1e-06
I0825 11:20:55.730465 20733 solver.cpp:228] Iteration 44500, loss = 0.00279128
I0825 11:20:55.730576 20733 solver.cpp:244]     Train net output #0: accuracy = 1
I0825 11:20:55.730588 20733 sgd_solver.cpp:106] Iteration 44500, lr = 1e-06
I0825 11:26:36.431169 20733 solver.cpp:228] Iteration 44600, loss = 0.00215826
I0825 11:26:36.431543 20733 solver.cpp:244]     Train net output #0: accuracy = 1
I0825 11:26:36.431553 20733 sgd_solver.cpp:106] Iteration 44600, lr = 1e-06
I0825 11:32:17.521845 20733 solver.cpp:228] Iteration 44700, loss = 0.00491151
I0825 11:32:17.521914 20733 solver.cpp:244]     Train net output #0: accuracy = 1
I0825 11:32:17.521924 20733 sgd_solver.cpp:106] Iteration 44700, lr = 1e-06
I0825 11:37:58.582859 20733 solver.cpp:228] Iteration 44800, loss = 0.00599547
I0825 11:37:58.582976 20733 solver.cpp:244]     Train net output #0: accuracy = 1
I0825 11:37:58.582984 20733 sgd_solver.cpp:106] Iteration 44800, lr = 1e-06
I0825 11:43:39.309419 20733 solver.cpp:228] Iteration 44900, loss = 0.00169351
I0825 11:43:39.309511 20733 solver.cpp:244]     Train net output #0: accuracy = 1
I0825 11:43:39.309521 20733 sgd_solver.cpp:106] Iteration 44900, lr = 1e-06
I0825 11:49:16.967648 20733 solver.cpp:454] Snapshotting to binary proto file model/mn_iter_45000.caffemodel
I0825 11:49:16.987831 20733 sgd_solver.cpp:273] Snapshotting solver state to binary proto file model/mn_iter_45000.solverstate
I0825 11:49:16.994285 20733 solver.cpp:337] Iteration 45000, Testing net (#0)
I0825 11:53:19.958894 20733 solver.cpp:404]     Test net output #0: accuracy = 0.74328
I0825 11:53:23.278889 20733 solver.cpp:228] Iteration 45000, loss = 0.00134765
I0825 11:53:23.278918 20733 solver.cpp:244]     Train net output #0: accuracy = 1
I0825 11:53:23.278926 20733 sgd_solver.cpp:106] Iteration 45000, lr = 1e-06
I0825 11:59:04.535975 20733 solver.cpp:228] Iteration 45100, loss = 0.00178483
I0825 11:59:04.536073 20733 solver.cpp:244]     Train net output #0: accuracy = 1
I0825 11:59:04.536084 20733 sgd_solver.cpp:106] Iteration 45100, lr = 1e-06
I0825 12:04:45.987586 20733 solver.cpp:228] Iteration 45200, loss = 0.00186644
I0825 12:04:45.987663 20733 solver.cpp:244]     Train net output #0: accuracy = 1
I0825 12:04:45.987673 20733 sgd_solver.cpp:106] Iteration 45200, lr = 1e-06
I0825 12:10:27.587975 20733 solver.cpp:228] Iteration 45300, loss = 0.00152687
I0825 12:10:27.588582 20733 solver.cpp:244]     Train net output #0: accuracy = 1
I0825 12:10:27.588593 20733 sgd_solver.cpp:106] Iteration 45300, lr = 1e-06
I0825 12:16:08.813762 20733 solver.cpp:228] Iteration 45400, loss = 0.00145216
I0825 12:16:08.813843 20733 solver.cpp:244]     Train net output #0: accuracy = 1
I0825 12:16:08.813853 20733 sgd_solver.cpp:106] Iteration 45400, lr = 1e-06
I0825 12:21:50.184901 20733 solver.cpp:228] Iteration 45500, loss = 0.00395501
I0825 12:21:50.187361 20733 solver.cpp:244]     Train net output #0: accuracy = 1
I0825 12:21:50.187371 20733 sgd_solver.cpp:106] Iteration 45500, lr = 1e-06
I0825 12:27:31.863086 20733 solver.cpp:228] Iteration 45600, loss = 0.00494955
I0825 12:27:31.863167 20733 solver.cpp:244]     Train net output #0: accuracy = 1
I0825 12:27:31.863175 20733 sgd_solver.cpp:106] Iteration 45600, lr = 1e-06
I0825 12:33:12.902065 20733 solver.cpp:228] Iteration 45700, loss = 0.00364618
I0825 12:33:12.902137 20733 solver.cpp:244]     Train net output #0: accuracy = 1
I0825 12:33:12.902146 20733 sgd_solver.cpp:106] Iteration 45700, lr = 1e-06
I0825 12:38:53.827209 20733 solver.cpp:228] Iteration 45800, loss = 0.0111203
I0825 12:38:53.827320 20733 solver.cpp:244]     Train net output #0: accuracy = 1
I0825 12:38:53.827330 20733 sgd_solver.cpp:106] Iteration 45800, lr = 1e-06
I0825 12:44:35.052759 20733 solver.cpp:228] Iteration 45900, loss = 0.00282753
I0825 12:44:35.052839 20733 solver.cpp:244]     Train net output #0: accuracy = 1
I0825 12:44:35.052848 20733 sgd_solver.cpp:106] Iteration 45900, lr = 1e-06
I0825 12:50:13.221699 20733 solver.cpp:337] Iteration 46000, Testing net (#0)
I0825 12:54:16.158175 20733 solver.cpp:404]     Test net output #0: accuracy = 0.74336
I0825 12:54:19.451246 20733 solver.cpp:228] Iteration 46000, loss = 0.00363813
I0825 12:54:19.451277 20733 solver.cpp:244]     Train net output #0: accuracy = 1
I0825 12:54:19.451284 20733 sgd_solver.cpp:106] Iteration 46000, lr = 1e-06
I0825 13:00:00.628134 20733 solver.cpp:228] Iteration 46100, loss = 0.00192836
I0825 13:00:00.628226 20733 solver.cpp:244]     Train net output #0: accuracy = 1
I0825 13:00:00.628237 20733 sgd_solver.cpp:106] Iteration 46100, lr = 1e-06
I0825 13:05:41.520850 20733 solver.cpp:228] Iteration 46200, loss = 0.00262937
I0825 13:05:41.520923 20733 solver.cpp:244]     Train net output #0: accuracy = 1
I0825 13:05:41.520933 20733 sgd_solver.cpp:106] Iteration 46200, lr = 1e-06
I0825 13:11:22.635783 20733 solver.cpp:228] Iteration 46300, loss = 0.00183913
I0825 13:11:22.635860 20733 solver.cpp:244]     Train net output #0: accuracy = 1
I0825 13:11:22.635870 20733 sgd_solver.cpp:106] Iteration 46300, lr = 1e-06
I0825 13:17:04.194391 20733 solver.cpp:228] Iteration 46400, loss = 0.00563134
I0825 13:17:04.194491 20733 solver.cpp:244]     Train net output #0: accuracy = 1
I0825 13:17:04.194501 20733 sgd_solver.cpp:106] Iteration 46400, lr = 1e-06
I0825 13:22:45.109613 20733 solver.cpp:228] Iteration 46500, loss = 0.0126823
I0825 13:22:45.109704 20733 solver.cpp:244]     Train net output #0: accuracy = 1
I0825 13:22:45.109714 20733 sgd_solver.cpp:106] Iteration 46500, lr = 1e-06
I0825 13:28:26.119475 20733 solver.cpp:228] Iteration 46600, loss = 0.00882604
I0825 13:28:26.119693 20733 solver.cpp:244]     Train net output #0: accuracy = 1
I0825 13:28:26.119704 20733 sgd_solver.cpp:106] Iteration 46600, lr = 1e-06
I0825 13:34:07.123914 20733 solver.cpp:228] Iteration 46700, loss = 0.00684337
I0825 13:34:07.124061 20733 solver.cpp:244]     Train net output #0: accuracy = 1
I0825 13:34:07.124076 20733 sgd_solver.cpp:106] Iteration 46700, lr = 1e-06
I0825 13:39:47.935917 20733 solver.cpp:228] Iteration 46800, loss = 0.00158156
I0825 13:39:47.938616 20733 solver.cpp:244]     Train net output #0: accuracy = 1
I0825 13:39:47.938626 20733 sgd_solver.cpp:106] Iteration 46800, lr = 1e-06
I0825 13:45:29.563647 20733 solver.cpp:228] Iteration 46900, loss = 0.00435765
I0825 13:45:29.563724 20733 solver.cpp:244]     Train net output #0: accuracy = 1
I0825 13:45:29.563733 20733 sgd_solver.cpp:106] Iteration 46900, lr = 1e-06
I0825 13:51:07.883446 20733 solver.cpp:337] Iteration 47000, Testing net (#0)
I0825 13:55:11.332523 20733 solver.cpp:404]     Test net output #0: accuracy = 0.74304
I0825 13:55:14.650269 20733 solver.cpp:228] Iteration 47000, loss = 0.00697515
I0825 13:55:14.650300 20733 solver.cpp:244]     Train net output #0: accuracy = 1
I0825 13:55:14.650306 20733 sgd_solver.cpp:106] Iteration 47000, lr = 1e-06
I0825 14:00:55.904079 20733 solver.cpp:228] Iteration 47100, loss = 0.00128841
I0825 14:00:55.904165 20733 solver.cpp:244]     Train net output #0: accuracy = 1
I0825 14:00:55.904175 20733 sgd_solver.cpp:106] Iteration 47100, lr = 1e-06
I0825 14:06:37.810138 20733 solver.cpp:228] Iteration 47200, loss = 0.00262308
I0825 14:06:37.810225 20733 solver.cpp:244]     Train net output #0: accuracy = 1
I0825 14:06:37.810235 20733 sgd_solver.cpp:106] Iteration 47200, lr = 1e-06
I0825 14:12:19.508949 20733 solver.cpp:228] Iteration 47300, loss = 0.000974875
I0825 14:12:19.509032 20733 solver.cpp:244]     Train net output #0: accuracy = 1
I0825 14:12:19.509043 20733 sgd_solver.cpp:106] Iteration 47300, lr = 1e-06
I0825 14:18:01.055599 20733 solver.cpp:228] Iteration 47400, loss = 0.00713105
I0825 14:18:01.055711 20733 solver.cpp:244]     Train net output #0: accuracy = 1
I0825 14:18:01.055721 20733 sgd_solver.cpp:106] Iteration 47400, lr = 1e-06
I0825 14:23:42.850942 20733 solver.cpp:228] Iteration 47500, loss = 0.00336391
I0825 14:23:42.851024 20733 solver.cpp:244]     Train net output #0: accuracy = 1
I0825 14:23:42.851037 20733 sgd_solver.cpp:106] Iteration 47500, lr = 1e-06
I0825 14:29:21.135057 20733 solver.cpp:228] Iteration 47600, loss = 0.00424802
I0825 14:29:21.135128 20733 solver.cpp:244]     Train net output #0: accuracy = 1
I0825 14:29:21.135136 20733 sgd_solver.cpp:106] Iteration 47600, lr = 1e-06
I0825 14:34:55.654808 20733 solver.cpp:228] Iteration 47700, loss = 0.0070162
I0825 14:34:55.654891 20733 solver.cpp:244]     Train net output #0: accuracy = 1
I0825 14:34:55.654901 20733 sgd_solver.cpp:106] Iteration 47700, lr = 1e-06
I0825 14:40:30.387408 20733 solver.cpp:228] Iteration 47800, loss = 0.00903815
I0825 14:40:30.387470 20733 solver.cpp:244]     Train net output #0: accuracy = 1
I0825 14:40:30.387480 20733 sgd_solver.cpp:106] Iteration 47800, lr = 1e-06
I0825 14:46:04.623319 20733 solver.cpp:228] Iteration 47900, loss = 0.00224047
I0825 14:46:04.623389 20733 solver.cpp:244]     Train net output #0: accuracy = 1
I0825 14:46:04.623399 20733 sgd_solver.cpp:106] Iteration 47900, lr = 1e-06
I0825 14:51:35.743031 20733 solver.cpp:337] Iteration 48000, Testing net (#0)
I0825 14:55:34.174588 20733 solver.cpp:404]     Test net output #0: accuracy = 0.7424
I0825 14:55:37.424114 20733 solver.cpp:228] Iteration 48000, loss = 0.00535794
I0825 14:55:37.424144 20733 solver.cpp:244]     Train net output #0: accuracy = 1
I0825 14:55:37.424151 20733 sgd_solver.cpp:106] Iteration 48000, lr = 1e-06
I0825 15:01:11.774600 20733 solver.cpp:228] Iteration 48100, loss = 0.00128727
I0825 15:01:11.774675 20733 solver.cpp:244]     Train net output #0: accuracy = 1
I0825 15:01:11.774684 20733 sgd_solver.cpp:106] Iteration 48100, lr = 1e-06
I0825 15:06:46.176416 20733 solver.cpp:228] Iteration 48200, loss = 0.00601243
I0825 15:06:46.176482 20733 solver.cpp:244]     Train net output #0: accuracy = 1
I0825 15:06:46.176491 20733 sgd_solver.cpp:106] Iteration 48200, lr = 1e-06
I0825 15:12:20.521941 20733 solver.cpp:228] Iteration 48300, loss = 0.00722149
I0825 15:12:20.522020 20733 solver.cpp:244]     Train net output #0: accuracy = 1
I0825 15:12:20.522032 20733 sgd_solver.cpp:106] Iteration 48300, lr = 1e-06
I0825 15:17:55.000998 20733 solver.cpp:228] Iteration 48400, loss = 0.00797778
I0825 15:17:55.001075 20733 solver.cpp:244]     Train net output #0: accuracy = 1
I0825 15:17:55.001085 20733 sgd_solver.cpp:106] Iteration 48400, lr = 1e-06
I0825 15:23:29.585571 20733 solver.cpp:228] Iteration 48500, loss = 0.00377632
I0825 15:23:29.585654 20733 solver.cpp:244]     Train net output #0: accuracy = 1
I0825 15:23:29.585664 20733 sgd_solver.cpp:106] Iteration 48500, lr = 1e-06
I0825 15:29:04.057530 20733 solver.cpp:228] Iteration 48600, loss = 0.00130387
I0825 15:29:04.057586 20733 solver.cpp:244]     Train net output #0: accuracy = 1
I0825 15:29:04.057595 20733 sgd_solver.cpp:106] Iteration 48600, lr = 1e-06
I0825 15:34:38.623298 20733 solver.cpp:228] Iteration 48700, loss = 0.001365
I0825 15:34:38.623381 20733 solver.cpp:244]     Train net output #0: accuracy = 1
I0825 15:34:38.623391 20733 sgd_solver.cpp:106] Iteration 48700, lr = 1e-06
I0825 15:40:12.829923 20733 solver.cpp:228] Iteration 48800, loss = 0.0022926
I0825 15:40:12.829989 20733 solver.cpp:244]     Train net output #0: accuracy = 1
I0825 15:40:12.829998 20733 sgd_solver.cpp:106] Iteration 48800, lr = 1e-06
I0825 15:45:46.897646 20733 solver.cpp:228] Iteration 48900, loss = 0.00239014
I0825 15:45:46.897722 20733 solver.cpp:244]     Train net output #0: accuracy = 1
I0825 15:45:46.897732 20733 sgd_solver.cpp:106] Iteration 48900, lr = 1e-06
I0825 15:51:21.762989 20733 solver.cpp:337] Iteration 49000, Testing net (#0)
I0825 15:55:21.283677 20733 solver.cpp:404]     Test net output #0: accuracy = 0.74328
I0825 15:55:24.637171 20733 solver.cpp:228] Iteration 49000, loss = 0.0035475
I0825 15:55:24.637207 20733 solver.cpp:244]     Train net output #0: accuracy = 1
I0825 15:55:24.637215 20733 sgd_solver.cpp:106] Iteration 49000, lr = 1e-06
I0825 16:01:02.408618 20733 solver.cpp:228] Iteration 49100, loss = 0.00375009
I0825 16:01:02.408695 20733 solver.cpp:244]     Train net output #0: accuracy = 1
I0825 16:01:02.408707 20733 sgd_solver.cpp:106] Iteration 49100, lr = 1e-06
I0825 16:06:39.829744 20733 solver.cpp:228] Iteration 49200, loss = 0.00137899
I0825 16:06:39.829823 20733 solver.cpp:244]     Train net output #0: accuracy = 1
I0825 16:06:39.829835 20733 sgd_solver.cpp:106] Iteration 49200, lr = 1e-06
I0825 16:12:17.757150 20733 solver.cpp:228] Iteration 49300, loss = 0.00278256
I0825 16:12:17.757228 20733 solver.cpp:244]     Train net output #0: accuracy = 1
I0825 16:12:17.757237 20733 sgd_solver.cpp:106] Iteration 49300, lr = 1e-06
I0825 16:18:01.077929 20733 solver.cpp:228] Iteration 49400, loss = 0.00142548
I0825 16:18:01.078013 20733 solver.cpp:244]     Train net output #0: accuracy = 1
I0825 16:18:01.078027 20733 sgd_solver.cpp:106] Iteration 49400, lr = 1e-06
I0825 16:23:37.532302 20733 solver.cpp:228] Iteration 49500, loss = 0.005524
I0825 16:23:37.532395 20733 solver.cpp:244]     Train net output #0: accuracy = 1
I0825 16:23:37.532405 20733 sgd_solver.cpp:106] Iteration 49500, lr = 1e-06
I0825 16:29:19.798596 20733 solver.cpp:228] Iteration 49600, loss = 0.00288648
I0825 16:29:19.798676 20733 solver.cpp:244]     Train net output #0: accuracy = 1
I0825 16:29:19.798688 20733 sgd_solver.cpp:106] Iteration 49600, lr = 1e-06
I0825 16:34:57.364148 20733 solver.cpp:228] Iteration 49700, loss = 0.00403787
I0825 16:34:57.364231 20733 solver.cpp:244]     Train net output #0: accuracy = 1
I0825 16:34:57.364241 20733 sgd_solver.cpp:106] Iteration 49700, lr = 1e-06
I0825 16:40:36.575145 20733 solver.cpp:228] Iteration 49800, loss = 0.00760883
I0825 16:40:36.575911 20733 solver.cpp:244]     Train net output #0: accuracy = 1
I0825 16:40:36.575922 20733 sgd_solver.cpp:106] Iteration 49800, lr = 1e-06
I0825 16:46:16.530882 20733 solver.cpp:228] Iteration 49900, loss = 0.0020149
I0825 16:46:16.541934 20733 solver.cpp:244]     Train net output #0: accuracy = 1
I0825 16:46:16.541955 20733 sgd_solver.cpp:106] Iteration 49900, lr = 1e-06
I0825 16:52:00.449993 20733 solver.cpp:454] Snapshotting to binary proto file model/mn_iter_50000.caffemodel
I0825 16:52:00.471539 20733 sgd_solver.cpp:273] Snapshotting solver state to binary proto file model/mn_iter_50000.solverstate
I0825 16:52:01.453768 20733 solver.cpp:317] Iteration 50000, loss = 0.00185247
I0825 16:52:01.453799 20733 solver.cpp:337] Iteration 50000, Testing net (#0)
I0825 16:56:02.802630 20733 solver.cpp:404]     Test net output #0: accuracy = 0.74264
I0825 16:56:02.802707 20733 solver.cpp:322] Optimization Done.
I0825 16:56:02.802713 20733 caffe.cpp:254] Optimization Done.
